…
I0525 16:41:34.299307 23888 net.cpp:294] The NetState phase (0) differed from the phase (1) specified by a rule in layer accuracy
I0525 16:41:34.299388 23888 net.cpp:51] Initializing net from parameters: 
name: "LeNet on MNIST m6 NO-inPlace"
state {
  phase: TRAIN
  level: 0
  stage: ""
}
layer {
  name: "data"
  type: "Data"
  top: "data"
  top: "label"
  include {
    phase: TRAIN
  }
  transform_param {
    mirror: true
    mean_value: 33.68
    mean_value: 33.68
    mean_value: 33.68
  }
  data_param {
    source: "/home/danieleb/ML/mnist/input/lmdb/train_lmdb"
    batch_size: 128
    backend: LMDB
  }
}
layer {
  name: "conv1"
  type: "Convolution"
  bottom: "data"
  top: "conv1"
  param {
    lr_mult: 1
    decay_mult: 1
  }
  param {
    lr_mult: 2
    decay_mult: 0
  }
  convolution_param {
    num_output: 20
    pad: 1
    kernel_size: 5
    stride: 1
    weight_filler {
      type: "xavier"
    }
    bias_filler {
      type: "constant"
      value: 0
    }
  }
}
layer {
  name: "bn1"
  type: "BatchNorm"
  bottom: "conv1"
  top: "bn1"
  param {
    lr_mult: 0
    decay_mult: 0
  }
  param {
    lr_mult: 0
    decay_mult: 0
  }
  param {
    lr_mult: 0
    decay_mult: 0
  }
  batch_norm_param {
    use_global_stats: false
  }
}
layer {
  name: "scale1"
  type: "Scale"
  bottom: "bn1"
  top: "scale1"
  scale_param {
    bias_term: true
  }
}
layer {
  name: "relu1"
  type: "ReLU"
  bottom: "scale1"
  top: "relu1"
}
layer {
  name: "pool1"
  type: "Pooling"
  bottom: "relu1"
  top: "pool1"
  pooling_param {
    pool: MAX
    kernel_size: 2
    stride: 2
  }
}
layer {
  name: "conv2"
  type: "Convolution"
  bottom: "pool1"
  top: "conv2"
  param {
    lr_mult: 1
    decay_mult: 1
  }
  param {
    lr_mult: 2
    decay_mult: 0
  }
  convolution_param {
    num_output: 50
    pad: 1
    kernel_size: 5
    stride: 1
    weight_filler {
      type: "xavier"
    }
    bias_filler {
      type: "constant"
      value: 0
    }
  }
}
layer {
  name: "bn2"
  type: "BatchNorm"
  bottom: "conv2"
  top: "bn2"
  param {
    lr_mult: 0
    decay_mult: 0
  }
  param {
    lr_mult: 0
    decay_mult: 0
  }
  param {
    lr_mult: 0
    decay_mult: 0
  }
  batch_norm_param {
    use_global_stats: false
  }
}
layer {
  name: "scale2"
  type: "Scale"
  bottom: "bn2"
  top: "scale2"
  scale_param {
    bias_term: true
  }
}
layer {
  name: "relu2"
  type: "ReLU"
  bottom: "scale2"
  top: "relu2"
}
layer {
  name: "pool2"
  type: "Pooling"
  bottom: "relu2"
  top: "pool2"
  pooling_param {
    pool: MAX
    kernel_size: 2
    stride: 2
  }
}
layer {
  name: "fc1"
  type: "InnerProduct"
  bottom: "pool2"
  top: "fc1"
  param {
    lr_mult: 1
    decay_mult: 1
  }
  param {
    lr_mult: 2
    decay_mult: 0
  }
  inner_product_param {
    num_output: 500
    weight_filler {
      type: "xavier"
    }
    bias_filler {
      type: "constant"
      value: 1
    }
  }
}
layer {
  name: "relu3"
  type: "ReLU"
  bottom: "fc1"
  top: "relu3"
}
layer {
  name: "fc2"
  type: "InnerProduct"
  bottom: "relu3"
  top: "fc2"
  param {
    lr_mult: 1
    decay_mult: 1
  }
  param {
    lr_mult: 2
    decay_mult: 0
  }
  inner_product_param {
    num_output: 10
    weight_filler {
      type: "xavier"
    }
    bias_filler {
      type: "constant"
      value: 1
    }
  }
}
layer {
  name: "loss"
  type: "SoftmaxWithLoss"
  bottom: "fc2"
  bottom: "label"
  top: "loss"
}
I0525 16:41:34.299450 23888 layer_factory.hpp:77] Creating layer data
I0525 16:41:34.299532 23888 db_lmdb.cpp:35] Opened lmdb /home/danieleb/ML/mnist/input/lmdb/train_lmdb
I0525 16:41:34.299556 23888 net.cpp:84] Creating Layer data
I0525 16:41:34.299562 23888 net.cpp:380] data -> data
I0525 16:41:34.299580 23888 net.cpp:380] data -> label
I0525 16:41:34.300196 23888 data_layer.cpp:45] output data size: 128,3,28,28
I0525 16:41:34.302691 23888 net.cpp:122] Setting up data
I0525 16:41:34.302707 23888 net.cpp:129] Top shape: 128 3 28 28 (301056)
I0525 16:41:34.302711 23888 net.cpp:129] Top shape: 128 (128)
I0525 16:41:34.302713 23888 net.cpp:137] Memory required for data: 1204736
I0525 16:41:34.302721 23888 layer_factory.hpp:77] Creating layer conv1
I0525 16:41:34.302736 23888 net.cpp:84] Creating Layer conv1
I0525 16:41:34.302742 23888 net.cpp:406] conv1 <- data
I0525 16:41:34.302754 23888 net.cpp:380] conv1 -> conv1
I0525 16:41:34.969664 23888 net.cpp:122] Setting up conv1
I0525 16:41:34.969688 23888 net.cpp:129] Top shape: 128 20 26 26 (1730560)
I0525 16:41:34.969691 23888 net.cpp:137] Memory required for data: 8126976
I0525 16:41:34.969722 23888 layer_factory.hpp:77] Creating layer bn1
I0525 16:41:34.969730 23888 net.cpp:84] Creating Layer bn1
I0525 16:41:34.969733 23888 net.cpp:406] bn1 <- conv1
I0525 16:41:34.969739 23888 net.cpp:380] bn1 -> bn1
I0525 16:41:34.969856 23888 net.cpp:122] Setting up bn1
I0525 16:41:34.969861 23888 net.cpp:129] Top shape: 128 20 26 26 (1730560)
I0525 16:41:34.969862 23888 net.cpp:137] Memory required for data: 15049216
I0525 16:41:34.969869 23888 layer_factory.hpp:77] Creating layer scale1
I0525 16:41:34.969874 23888 net.cpp:84] Creating Layer scale1
I0525 16:41:34.969877 23888 net.cpp:406] scale1 <- bn1
I0525 16:41:34.969880 23888 net.cpp:380] scale1 -> scale1
I0525 16:41:34.969921 23888 layer_factory.hpp:77] Creating layer scale1
I0525 16:41:34.969988 23888 net.cpp:122] Setting up scale1
I0525 16:41:34.969993 23888 net.cpp:129] Top shape: 128 20 26 26 (1730560)
I0525 16:41:34.969995 23888 net.cpp:137] Memory required for data: 21971456
I0525 16:41:34.970000 23888 layer_factory.hpp:77] Creating layer relu1
I0525 16:41:34.970005 23888 net.cpp:84] Creating Layer relu1
I0525 16:41:34.970006 23888 net.cpp:406] relu1 <- scale1
I0525 16:41:34.970010 23888 net.cpp:380] relu1 -> relu1
I0525 16:41:34.970094 23888 net.cpp:122] Setting up relu1
I0525 16:41:34.970100 23888 net.cpp:129] Top shape: 128 20 26 26 (1730560)
I0525 16:41:34.970103 23888 net.cpp:137] Memory required for data: 28893696
I0525 16:41:34.970104 23888 layer_factory.hpp:77] Creating layer pool1
I0525 16:41:34.970109 23888 net.cpp:84] Creating Layer pool1
I0525 16:41:34.970111 23888 net.cpp:406] pool1 <- relu1
I0525 16:41:34.970115 23888 net.cpp:380] pool1 -> pool1
I0525 16:41:34.970140 23888 net.cpp:122] Setting up pool1
I0525 16:41:34.970145 23888 net.cpp:129] Top shape: 128 20 13 13 (432640)
I0525 16:41:34.970147 23888 net.cpp:137] Memory required for data: 30624256
I0525 16:41:34.970149 23888 layer_factory.hpp:77] Creating layer conv2
I0525 16:41:34.970156 23888 net.cpp:84] Creating Layer conv2
I0525 16:41:34.970160 23888 net.cpp:406] conv2 <- pool1
I0525 16:41:34.970162 23888 net.cpp:380] conv2 -> conv2
I0525 16:41:34.970779 23888 net.cpp:122] Setting up conv2
I0525 16:41:34.970790 23888 net.cpp:129] Top shape: 128 50 11 11 (774400)
I0525 16:41:34.970793 23888 net.cpp:137] Memory required for data: 33721856
I0525 16:41:34.970801 23888 layer_factory.hpp:77] Creating layer bn2
I0525 16:41:34.970808 23888 net.cpp:84] Creating Layer bn2
I0525 16:41:34.970810 23888 net.cpp:406] bn2 <- conv2
I0525 16:41:34.970827 23888 net.cpp:380] bn2 -> bn2
I0525 16:41:34.970942 23888 net.cpp:122] Setting up bn2
I0525 16:41:34.970947 23888 net.cpp:129] Top shape: 128 50 11 11 (774400)
I0525 16:41:34.970949 23888 net.cpp:137] Memory required for data: 36819456
I0525 16:41:34.970954 23888 layer_factory.hpp:77] Creating layer scale2
I0525 16:41:34.970959 23888 net.cpp:84] Creating Layer scale2
I0525 16:41:34.970962 23888 net.cpp:406] scale2 <- bn2
I0525 16:41:34.970964 23888 net.cpp:380] scale2 -> scale2
I0525 16:41:34.970984 23888 layer_factory.hpp:77] Creating layer scale2
I0525 16:41:34.971045 23888 net.cpp:122] Setting up scale2
I0525 16:41:34.971050 23888 net.cpp:129] Top shape: 128 50 11 11 (774400)
I0525 16:41:34.971052 23888 net.cpp:137] Memory required for data: 39917056
I0525 16:41:34.971056 23888 layer_factory.hpp:77] Creating layer relu2
I0525 16:41:34.971060 23888 net.cpp:84] Creating Layer relu2
I0525 16:41:34.971062 23888 net.cpp:406] relu2 <- scale2
I0525 16:41:34.971065 23888 net.cpp:380] relu2 -> relu2
I0525 16:41:34.971246 23888 net.cpp:122] Setting up relu2
I0525 16:41:34.971254 23888 net.cpp:129] Top shape: 128 50 11 11 (774400)
I0525 16:41:34.971256 23888 net.cpp:137] Memory required for data: 43014656
I0525 16:41:34.971258 23888 layer_factory.hpp:77] Creating layer pool2
I0525 16:41:34.971263 23888 net.cpp:84] Creating Layer pool2
I0525 16:41:34.971266 23888 net.cpp:406] pool2 <- relu2
I0525 16:41:34.971269 23888 net.cpp:380] pool2 -> pool2
I0525 16:41:34.971288 23888 net.cpp:122] Setting up pool2
I0525 16:41:34.971293 23888 net.cpp:129] Top shape: 128 50 6 6 (230400)
I0525 16:41:34.971295 23888 net.cpp:137] Memory required for data: 43936256
I0525 16:41:34.971297 23888 layer_factory.hpp:77] Creating layer fc1
I0525 16:41:34.971302 23888 net.cpp:84] Creating Layer fc1
I0525 16:41:34.971305 23888 net.cpp:406] fc1 <- pool2
I0525 16:41:34.971309 23888 net.cpp:380] fc1 -> fc1
I0525 16:41:34.975409 23888 net.cpp:122] Setting up fc1
I0525 16:41:34.975419 23888 net.cpp:129] Top shape: 128 500 (64000)
I0525 16:41:34.975422 23888 net.cpp:137] Memory required for data: 44192256
I0525 16:41:34.975428 23888 layer_factory.hpp:77] Creating layer relu3
I0525 16:41:34.975432 23888 net.cpp:84] Creating Layer relu3
I0525 16:41:34.975435 23888 net.cpp:406] relu3 <- fc1
I0525 16:41:34.975440 23888 net.cpp:380] relu3 -> relu3
I0525 16:41:34.975519 23888 net.cpp:122] Setting up relu3
I0525 16:41:34.975524 23888 net.cpp:129] Top shape: 128 500 (64000)
I0525 16:41:34.975527 23888 net.cpp:137] Memory required for data: 44448256
I0525 16:41:34.975529 23888 layer_factory.hpp:77] Creating layer fc2
I0525 16:41:34.975534 23888 net.cpp:84] Creating Layer fc2
I0525 16:41:34.975536 23888 net.cpp:406] fc2 <- relu3
I0525 16:41:34.975540 23888 net.cpp:380] fc2 -> fc2
I0525 16:41:34.975615 23888 net.cpp:122] Setting up fc2
I0525 16:41:34.975620 23888 net.cpp:129] Top shape: 128 10 (1280)
I0525 16:41:34.975620 23888 net.cpp:137] Memory required for data: 44453376
I0525 16:41:34.975627 23888 layer_factory.hpp:77] Creating layer loss
I0525 16:41:34.975632 23888 net.cpp:84] Creating Layer loss
I0525 16:41:34.975634 23888 net.cpp:406] loss <- fc2
I0525 16:41:34.975637 23888 net.cpp:406] loss <- label
I0525 16:41:34.975642 23888 net.cpp:380] loss -> loss
I0525 16:41:34.975648 23888 layer_factory.hpp:77] Creating layer loss
…
I0525 16:41:34.976171 23888 net.cpp:294] The NetState phase (1) differed from the phase (0) specified by a rule in layer data
I0525 16:41:34.976256 23888 net.cpp:51] Initializing net from parameters: 
name: "LeNet on MNIST m6 NO-inPlace"
state {
  phase: TEST
}
layer {
  name: "data"
  type: "Data"
  top: "data"
  top: "label"
  include {
    phase: TEST
  }
  transform_param {
    mirror: false
    mean_value: 33.68
    mean_value: 33.68
    mean_value: 33.68
  }
  data_param {
    source: "/home/danieleb/ML/mnist/input/lmdb/valid_lmdb"
    batch_size: 50
    backend: LMDB
  }
}
layer {
  name: "conv1"
  type: "Convolution"
  bottom: "data"
  top: "conv1"
  param {
    lr_mult: 1
    decay_mult: 1
  }
  param {
    lr_mult: 2
    decay_mult: 0
  }
  convolution_param {
    num_output: 20
    pad: 1
    kernel_size: 5
    stride: 1
    weight_filler {
      type: "xavier"
    }
    bias_filler {
      type: "constant"
      value: 0
    }
  }
}
layer {
  name: "bn1"
  type: "BatchNorm"
  bottom: "conv1"
  top: "bn1"
  param {
    lr_mult: 0
    decay_mult: 0
  }
  param {
    lr_mult: 0
    decay_mult: 0
  }
  param {
    lr_mult: 0
    decay_mult: 0
  }
  batch_norm_param {
    use_global_stats: false
  }
}
layer {
  name: "scale1"
  type: "Scale"
  bottom: "bn1"
  top: "scale1"
  scale_param {
    bias_term: true
  }
}
layer {
  name: "relu1"
  type: "ReLU"
  bottom: "scale1"
  top: "relu1"
}
layer {
  name: "pool1"
  type: "Pooling"
  bottom: "relu1"
  top: "pool1"
  pooling_param {
    pool: MAX
    kernel_size: 2
    stride: 2
  }
}
layer {
  name: "conv2"
  type: "Convolution"
  bottom: "pool1"
  top: "conv2"
  param {
    lr_mult: 1
    decay_mult: 1
  }
  param {
    lr_mult: 2
    decay_mult: 0
  }
  convolution_param {
    num_output: 50
    pad: 1
    kernel_size: 5
    stride: 1
    weight_filler {
      type: "xavier"
    }
    bias_filler {
      type: "constant"
      value: 0
    }
  }
}
layer {
  name: "bn2"
  type: "BatchNorm"
  bottom: "conv2"
  top: "bn2"
  param {
    lr_mult: 0
    decay_mult: 0
  }
  param {
    lr_mult: 0
    decay_mult: 0
  }
  param {
    lr_mult: 0
    decay_mult: 0
  }
  batch_norm_param {
    use_global_stats: false
  }
}
layer {
  name: "scale2"
  type: "Scale"
  bottom: "bn2"
  top: "scale2"
  scale_param {
    bias_term: true
  }
}
layer {
  name: "relu2"
  type: "ReLU"
  bottom: "scale2"
  top: "relu2"
}
layer {
  name: "pool2"
  type: "Pooling"
  bottom: "relu2"
  top: "pool2"
  pooling_param {
    pool: MAX
    kernel_size: 2
    stride: 2
  }
}
layer {
  name: "fc1"
  type: "InnerProduct"
  bottom: "pool2"
  top: "fc1"
  param {
    lr_mult: 1
    decay_mult: 1
  }
  param {
    lr_mult: 2
    decay_mult: 0
  }
  inner_product_param {
    num_output: 500
    weight_filler {
      type: "xavier"
    }
    bias_filler {
      type: "constant"
      value: 1
    }
  }
}
layer {
  name: "relu3"
  type: "ReLU"
  bottom: "fc1"
  top: "relu3"
}
layer {
  name: "fc2"
  type: "InnerProduct"
  bottom: "relu3"
  top: "fc2"
  param {
    lr_mult: 1
    decay_mult: 1
  }
  param {
    lr_mult: 2
    decay_mult: 0
  }
  inner_product_param {
    num_output: 10
    weight_filler {
      type: "xavier"
    }
    bias_filler {
      type: "constant"
      value: 1
    }
  }
}
layer {
  name: "loss"
  type: "SoftmaxWithLoss"
  bottom: "fc2"
  bottom: "label"
  top: "loss"
}
layer {
  name: "accuracy"
  type: "Accuracy"
  bottom: "fc2"
  bottom: "label"
  top: "accuracy"
  include {
    phase: TEST
  }
}
I0525 16:41:34.976315 23888 layer_factory.hpp:77] Creating layer data
I0525 16:41:34.976361 23888 db_lmdb.cpp:35] Opened lmdb /home/danieleb/ML/mnist/input/lmdb/valid_lmdb
I0525 16:41:34.976372 23888 net.cpp:84] Creating Layer data
I0525 16:41:34.976377 23888 net.cpp:380] data -> data
I0525 16:41:34.976382 23888 net.cpp:380] data -> label
I0525 16:41:34.976445 23888 data_layer.cpp:45] output data size: 50,3,28,28
I0525 16:41:34.977030 23888 net.cpp:122] Setting up data
I0525 16:41:34.977038 23888 net.cpp:129] Top shape: 50 3 28 28 (117600)
I0525 16:41:34.977042 23888 net.cpp:129] Top shape: 50 (50)
I0525 16:41:34.977044 23888 net.cpp:137] Memory required for data: 470600
I0525 16:41:34.977048 23888 layer_factory.hpp:77] Creating layer label_data_1_split
I0525 16:41:34.977053 23888 net.cpp:84] Creating Layer label_data_1_split
I0525 16:41:34.977056 23888 net.cpp:406] label_data_1_split <- label
I0525 16:41:34.977061 23888 net.cpp:380] label_data_1_split -> label_data_1_split_0
I0525 16:41:34.977066 23888 net.cpp:380] label_data_1_split -> label_data_1_split_1
I0525 16:41:34.977090 23888 net.cpp:122] Setting up label_data_1_split
I0525 16:41:34.977094 23888 net.cpp:129] Top shape: 50 (50)
I0525 16:41:34.977098 23888 net.cpp:129] Top shape: 50 (50)
I0525 16:41:34.977100 23888 net.cpp:137] Memory required for data: 471000
I0525 16:41:34.977102 23888 layer_factory.hpp:77] Creating layer conv1
I0525 16:41:34.977113 23888 net.cpp:84] Creating Layer conv1
I0525 16:41:34.977116 23888 net.cpp:406] conv1 <- data
I0525 16:41:34.977120 23888 net.cpp:380] conv1 -> conv1
I0525 16:41:34.979034 23888 net.cpp:122] Setting up conv1
I0525 16:41:34.979046 23888 net.cpp:129] Top shape: 50 20 26 26 (676000)
I0525 16:41:34.979049 23888 net.cpp:137] Memory required for data: 3175000
I0525 16:41:34.979058 23888 layer_factory.hpp:77] Creating layer bn1
I0525 16:41:34.979064 23888 net.cpp:84] Creating Layer bn1
I0525 16:41:34.979068 23888 net.cpp:406] bn1 <- conv1
I0525 16:41:34.979073 23888 net.cpp:380] bn1 -> bn1
I0525 16:41:34.979197 23888 net.cpp:122] Setting up bn1
I0525 16:41:34.979200 23888 net.cpp:129] Top shape: 50 20 26 26 (676000)
I0525 16:41:34.979203 23888 net.cpp:137] Memory required for data: 5879000
I0525 16:41:34.979210 23888 layer_factory.hpp:77] Creating layer scale1
I0525 16:41:34.979216 23888 net.cpp:84] Creating Layer scale1
I0525 16:41:34.979218 23888 net.cpp:406] scale1 <- bn1
I0525 16:41:34.979223 23888 net.cpp:380] scale1 -> scale1
I0525 16:41:34.979251 23888 layer_factory.hpp:77] Creating layer scale1
I0525 16:41:34.979383 23888 net.cpp:122] Setting up scale1
I0525 16:41:34.979388 23888 net.cpp:129] Top shape: 50 20 26 26 (676000)
I0525 16:41:34.979390 23888 net.cpp:137] Memory required for data: 8583000
I0525 16:41:34.979394 23888 layer_factory.hpp:77] Creating layer relu1
I0525 16:41:34.979398 23888 net.cpp:84] Creating Layer relu1
I0525 16:41:34.979400 23888 net.cpp:406] relu1 <- scale1
I0525 16:41:34.979403 23888 net.cpp:380] relu1 -> relu1
I0525 16:41:34.979478 23888 net.cpp:122] Setting up relu1
I0525 16:41:34.979483 23888 net.cpp:129] Top shape: 50 20 26 26 (676000)
I0525 16:41:34.979487 23888 net.cpp:137] Memory required for data: 11287000
I0525 16:41:34.979490 23888 layer_factory.hpp:77] Creating layer pool1
I0525 16:41:34.979493 23888 net.cpp:84] Creating Layer pool1
I0525 16:41:34.979496 23888 net.cpp:406] pool1 <- relu1
I0525 16:41:34.979499 23888 net.cpp:380] pool1 -> pool1
I0525 16:41:34.979532 23888 net.cpp:122] Setting up pool1
I0525 16:41:34.979538 23888 net.cpp:129] Top shape: 50 20 13 13 (169000)
I0525 16:41:34.979540 23888 net.cpp:137] Memory required for data: 11963000
I0525 16:41:34.979542 23888 layer_factory.hpp:77] Creating layer conv2
I0525 16:41:34.979548 23888 net.cpp:84] Creating Layer conv2
I0525 16:41:34.979552 23888 net.cpp:406] conv2 <- pool1
I0525 16:41:34.979555 23888 net.cpp:380] conv2 -> conv2
I0525 16:41:34.980284 23888 net.cpp:122] Setting up conv2
I0525 16:41:34.980293 23888 net.cpp:129] Top shape: 50 50 11 11 (302500)
I0525 16:41:34.980296 23888 net.cpp:137] Memory required for data: 13173000
I0525 16:41:34.980304 23888 layer_factory.hpp:77] Creating layer bn2
I0525 16:41:34.980310 23888 net.cpp:84] Creating Layer bn2
I0525 16:41:34.980314 23888 net.cpp:406] bn2 <- conv2
I0525 16:41:34.980320 23888 net.cpp:380] bn2 -> bn2
I0525 16:41:34.980434 23888 net.cpp:122] Setting up bn2
I0525 16:41:34.980439 23888 net.cpp:129] Top shape: 50 50 11 11 (302500)
I0525 16:41:34.980442 23888 net.cpp:137] Memory required for data: 14383000
I0525 16:41:34.980446 23888 layer_factory.hpp:77] Creating layer scale2
I0525 16:41:34.980450 23888 net.cpp:84] Creating Layer scale2
I0525 16:41:34.980453 23888 net.cpp:406] scale2 <- bn2
I0525 16:41:34.980456 23888 net.cpp:380] scale2 -> scale2
I0525 16:41:34.980476 23888 layer_factory.hpp:77] Creating layer scale2
I0525 16:41:34.980536 23888 net.cpp:122] Setting up scale2
I0525 16:41:34.980541 23888 net.cpp:129] Top shape: 50 50 11 11 (302500)
I0525 16:41:34.980543 23888 net.cpp:137] Memory required for data: 15593000
I0525 16:41:34.980547 23888 layer_factory.hpp:77] Creating layer relu2
I0525 16:41:34.980551 23888 net.cpp:84] Creating Layer relu2
I0525 16:41:34.980552 23888 net.cpp:406] relu2 <- scale2
I0525 16:41:34.980556 23888 net.cpp:380] relu2 -> relu2
I0525 16:41:34.980737 23888 net.cpp:122] Setting up relu2
I0525 16:41:34.980744 23888 net.cpp:129] Top shape: 50 50 11 11 (302500)
I0525 16:41:34.980746 23888 net.cpp:137] Memory required for data: 16803000
I0525 16:41:34.980749 23888 layer_factory.hpp:77] Creating layer pool2
I0525 16:41:34.980753 23888 net.cpp:84] Creating Layer pool2
I0525 16:41:34.980756 23888 net.cpp:406] pool2 <- relu2
I0525 16:41:34.980759 23888 net.cpp:380] pool2 -> pool2
I0525 16:41:34.980779 23888 net.cpp:122] Setting up pool2
I0525 16:41:34.980785 23888 net.cpp:129] Top shape: 50 50 6 6 (90000)
I0525 16:41:34.980787 23888 net.cpp:137] Memory required for data: 17163000
I0525 16:41:34.980789 23888 layer_factory.hpp:77] Creating layer fc1
I0525 16:41:34.980793 23888 net.cpp:84] Creating Layer fc1
I0525 16:41:34.980796 23888 net.cpp:406] fc1 <- pool2
I0525 16:41:34.980800 23888 net.cpp:380] fc1 -> fc1
I0525 16:41:34.985136 23888 net.cpp:122] Setting up fc1
I0525 16:41:34.985148 23888 net.cpp:129] Top shape: 50 500 (25000)
I0525 16:41:34.985152 23888 net.cpp:137] Memory required for data: 17263000
I0525 16:41:34.985157 23888 layer_factory.hpp:77] Creating layer relu3
I0525 16:41:34.985162 23888 net.cpp:84] Creating Layer relu3
I0525 16:41:34.985165 23888 net.cpp:406] relu3 <- fc1
I0525 16:41:34.985170 23888 net.cpp:380] relu3 -> relu3
I0525 16:41:34.985275 23888 net.cpp:122] Setting up relu3
I0525 16:41:34.985281 23888 net.cpp:129] Top shape: 50 500 (25000)
I0525 16:41:34.985283 23888 net.cpp:137] Memory required for data: 17363000
I0525 16:41:34.985286 23888 layer_factory.hpp:77] Creating layer fc2
I0525 16:41:34.985291 23888 net.cpp:84] Creating Layer fc2
I0525 16:41:34.985296 23888 net.cpp:406] fc2 <- relu3
I0525 16:41:34.985299 23888 net.cpp:380] fc2 -> fc2
I0525 16:41:34.985388 23888 net.cpp:122] Setting up fc2
I0525 16:41:34.985394 23888 net.cpp:129] Top shape: 50 10 (500)
I0525 16:41:34.985395 23888 net.cpp:137] Memory required for data: 17365000
I0525 16:41:34.985402 23888 layer_factory.hpp:77] Creating layer fc2_fc2_0_split
I0525 16:41:34.985409 23888 net.cpp:84] Creating Layer fc2_fc2_0_split
I0525 16:41:34.985410 23888 net.cpp:406] fc2_fc2_0_split <- fc2
I0525 16:41:34.985414 23888 net.cpp:380] fc2_fc2_0_split -> fc2_fc2_0_split_0
I0525 16:41:34.985432 23888 net.cpp:380] fc2_fc2_0_split -> fc2_fc2_0_split_1
I0525 16:41:34.985455 23888 net.cpp:122] Setting up fc2_fc2_0_split
I0525 16:41:34.985460 23888 net.cpp:129] Top shape: 50 10 (500)
I0525 16:41:34.985461 23888 net.cpp:129] Top shape: 50 10 (500)
I0525 16:41:34.985463 23888 net.cpp:137] Memory required for data: 17369000
I0525 16:41:34.985466 23888 layer_factory.hpp:77] Creating layer loss
I0525 16:41:34.985472 23888 net.cpp:84] Creating Layer loss
I0525 16:41:34.985476 23888 net.cpp:406] loss <- fc2_fc2_0_split_0
I0525 16:41:34.985478 23888 net.cpp:406] loss <- label_data_1_split_0
I0525 16:41:34.985483 23888 net.cpp:380] loss -> loss
…
