…
I0525 16:42:07.380975 24130 upgrade_proto.cpp:79] Attempting to upgrade batch norm layers using deprecated params: /home/danieleb/ML/mnist/caffe/models/LeNet/m6/deploy_6_LeNet.prototxt
I0525 16:42:07.380985 24130 upgrade_proto.cpp:82] Successfully upgraded batch norm layers using deprecated params.
I0525 16:42:07.381079 24130 net.cpp:51] Initializing net from parameters: 
state {
  phase: TEST
  level: 0
}
layer {
  name: "data"
  type: "Input"
  top: "data"
  input_param {
    shape {
      dim: 1
      dim: 3
      dim: 28
      dim: 28
    }
  }
}
layer {
  name: "conv1"
  type: "Convolution"
  bottom: "data"
  top: "conv1"
  param {
    lr_mult: 1
    decay_mult: 1
  }
  param {
    lr_mult: 2
    decay_mult: 0
  }
  convolution_param {
    num_output: 20
    pad: 1
    kernel_size: 5
    stride: 1
    weight_filler {
      type: "xavier"
    }
    bias_filler {
      type: "constant"
      value: 0
    }
  }
}
layer {
  name: "bn1"
  type: "BatchNorm"
  bottom: "conv1"
  top: "bn1"
  param {
    lr_mult: 0
    decay_mult: 0
  }
  param {
    lr_mult: 0
    decay_mult: 0
  }
  param {
    lr_mult: 0
    decay_mult: 0
  }
  batch_norm_param {
    use_global_stats: true
  }
}
layer {
  name: "scale1"
  type: "Scale"
  bottom: "bn1"
  top: "scale1"
  scale_param {
    bias_term: true
  }
}
layer {
  name: "relu1"
  type: "ReLU"
  bottom: "scale1"
  top: "relu1"
}
layer {
  name: "pool1"
  type: "Pooling"
  bottom: "relu1"
  top: "pool1"
  pooling_param {
    pool: MAX
    kernel_size: 2
    stride: 2
  }
}
layer {
  name: "conv2"
  type: "Convolution"
  bottom: "pool1"
  top: "conv2"
  param {
    lr_mult: 1
    decay_mult: 1
  }
  param {
    lr_mult: 2
    decay_mult: 0
  }
  convolution_param {
    num_output: 50
    pad: 1
    kernel_size: 5
    stride: 1
    weight_filler {
      type: "xavier"
    }
    bias_filler {
      type: "constant"
      value: 0
    }
  }
}
layer {
  name: "bn2"
  type: "BatchNorm"
  bottom: "conv2"
  top: "bn2"
  param {
    lr_mult: 0
    decay_mult: 0
  }
  param {
    lr_mult: 0
    decay_mult: 0
  }
  param {
    lr_mult: 0
    decay_mult: 0
  }
  batch_norm_param {
    use_global_stats: true
  }
}
layer {
  name: "scale2"
  type: "Scale"
  bottom: "bn2"
  top: "scale2"
  scale_param {
    bias_term: true
  }
}
layer {
  name: "relu2"
  type: "ReLU"
  bottom: "scale2"
  top: "relu2"
}
layer {
  name: "pool2"
  type: "Pooling"
  bottom: "relu2"
  top: "pool2"
  pooling_param {
    pool: MAX
    kernel_size: 2
    stride: 2
  }
}
layer {
  name: "fc1"
  type: "InnerProduct"
  bottom: "pool2"
  top: "fc1"
  param {
    lr_mult: 1
    decay_mult: 1
  }
  param {
    lr_mult: 2
    decay_mult: 0
  }
  inner_product_param {
    num_output: 500
    weight_filler {
      type: "xavier"
    }
    bias_filler {
      type: "constant"
      value: 1
    }
  }
}
layer {
  name: "relu3"
  type: "ReLU"
  bottom: "fc1"
  top: "relu3"
}
layer {
  name: "fc2"
  type: "InnerProduct"
  bottom: "relu3"
  top: "fc2"
  param {
    lr_mult: 1
    decay_mult: 1
  }
  param {
    lr_mult: 2
    decay_mult: 0
  }
  inner_product_param {
    num_output: 10
    weight_filler {
      type: "xavier"
    }
    bias_filler {
      type: "constant"
      value: 1
    }
  }
}
layer {
  name: "prob"
  type: "Softmax"
  bottom: "fc2"
  top: "prob"
}
I0525 16:42:07.381114 24130 layer_factory.hpp:77] Creating layer data
I0525 16:42:07.381120 24130 net.cpp:84] Creating Layer data
I0525 16:42:07.381126 24130 net.cpp:380] data -> data
I0525 16:42:07.390175 24130 net.cpp:122] Setting up data
I0525 16:42:07.390190 24130 net.cpp:129] Top shape: 1 3 28 28 (2352)
I0525 16:42:07.390192 24130 net.cpp:137] Memory required for data: 9408
I0525 16:42:07.390197 24130 layer_factory.hpp:77] Creating layer conv1
I0525 16:42:07.390226 24130 net.cpp:84] Creating Layer conv1
I0525 16:42:07.390228 24130 net.cpp:406] conv1 <- data
I0525 16:42:07.390233 24130 net.cpp:380] conv1 -> conv1
I0525 16:42:08.059345 24130 net.cpp:122] Setting up conv1
I0525 16:42:08.059365 24130 net.cpp:129] Top shape: 1 20 26 26 (13520)
I0525 16:42:08.059367 24130 net.cpp:137] Memory required for data: 63488
I0525 16:42:08.059396 24130 layer_factory.hpp:77] Creating layer bn1
I0525 16:42:08.059406 24130 net.cpp:84] Creating Layer bn1
I0525 16:42:08.059408 24130 net.cpp:406] bn1 <- conv1
I0525 16:42:08.059413 24130 net.cpp:380] bn1 -> bn1
I0525 16:42:08.059528 24130 net.cpp:122] Setting up bn1
I0525 16:42:08.059533 24130 net.cpp:129] Top shape: 1 20 26 26 (13520)
I0525 16:42:08.059535 24130 net.cpp:137] Memory required for data: 117568
I0525 16:42:08.059541 24130 layer_factory.hpp:77] Creating layer scale1
I0525 16:42:08.059546 24130 net.cpp:84] Creating Layer scale1
I0525 16:42:08.059548 24130 net.cpp:406] scale1 <- bn1
I0525 16:42:08.059552 24130 net.cpp:380] scale1 -> scale1
I0525 16:42:08.059573 24130 layer_factory.hpp:77] Creating layer scale1
I0525 16:42:08.059635 24130 net.cpp:122] Setting up scale1
I0525 16:42:08.059639 24130 net.cpp:129] Top shape: 1 20 26 26 (13520)
I0525 16:42:08.059641 24130 net.cpp:137] Memory required for data: 171648
I0525 16:42:08.059645 24130 layer_factory.hpp:77] Creating layer relu1
I0525 16:42:08.059649 24130 net.cpp:84] Creating Layer relu1
I0525 16:42:08.059651 24130 net.cpp:406] relu1 <- scale1
I0525 16:42:08.059654 24130 net.cpp:380] relu1 -> relu1
I0525 16:42:08.059723 24130 net.cpp:122] Setting up relu1
I0525 16:42:08.059727 24130 net.cpp:129] Top shape: 1 20 26 26 (13520)
I0525 16:42:08.059729 24130 net.cpp:137] Memory required for data: 225728
I0525 16:42:08.059732 24130 layer_factory.hpp:77] Creating layer pool1
I0525 16:42:08.059736 24130 net.cpp:84] Creating Layer pool1
I0525 16:42:08.059738 24130 net.cpp:406] pool1 <- relu1
I0525 16:42:08.059741 24130 net.cpp:380] pool1 -> pool1
I0525 16:42:08.059761 24130 net.cpp:122] Setting up pool1
I0525 16:42:08.059764 24130 net.cpp:129] Top shape: 1 20 13 13 (3380)
I0525 16:42:08.059765 24130 net.cpp:137] Memory required for data: 239248
I0525 16:42:08.059768 24130 layer_factory.hpp:77] Creating layer conv2
I0525 16:42:08.059775 24130 net.cpp:84] Creating Layer conv2
I0525 16:42:08.059777 24130 net.cpp:406] conv2 <- pool1
I0525 16:42:08.059780 24130 net.cpp:380] conv2 -> conv2
I0525 16:42:08.060395 24130 net.cpp:122] Setting up conv2
I0525 16:42:08.060405 24130 net.cpp:129] Top shape: 1 50 11 11 (6050)
I0525 16:42:08.060407 24130 net.cpp:137] Memory required for data: 263448
I0525 16:42:08.060415 24130 layer_factory.hpp:77] Creating layer bn2
I0525 16:42:08.060421 24130 net.cpp:84] Creating Layer bn2
I0525 16:42:08.060425 24130 net.cpp:406] bn2 <- conv2
I0525 16:42:08.060433 24130 net.cpp:380] bn2 -> bn2
I0525 16:42:08.060572 24130 net.cpp:122] Setting up bn2
I0525 16:42:08.060577 24130 net.cpp:129] Top shape: 1 50 11 11 (6050)
I0525 16:42:08.060580 24130 net.cpp:137] Memory required for data: 287648
I0525 16:42:08.060585 24130 layer_factory.hpp:77] Creating layer scale2
I0525 16:42:08.060590 24130 net.cpp:84] Creating Layer scale2
I0525 16:42:08.060593 24130 net.cpp:406] scale2 <- bn2
I0525 16:42:08.060597 24130 net.cpp:380] scale2 -> scale2
I0525 16:42:08.060622 24130 layer_factory.hpp:77] Creating layer scale2
I0525 16:42:08.060696 24130 net.cpp:122] Setting up scale2
I0525 16:42:08.060701 24130 net.cpp:129] Top shape: 1 50 11 11 (6050)
I0525 16:42:08.060703 24130 net.cpp:137] Memory required for data: 311848
I0525 16:42:08.060708 24130 layer_factory.hpp:77] Creating layer relu2
I0525 16:42:08.060712 24130 net.cpp:84] Creating Layer relu2
I0525 16:42:08.060714 24130 net.cpp:406] relu2 <- scale2
I0525 16:42:08.060719 24130 net.cpp:380] relu2 -> relu2
I0525 16:42:08.060921 24130 net.cpp:122] Setting up relu2
I0525 16:42:08.060928 24130 net.cpp:129] Top shape: 1 50 11 11 (6050)
I0525 16:42:08.060930 24130 net.cpp:137] Memory required for data: 336048
I0525 16:42:08.060933 24130 layer_factory.hpp:77] Creating layer pool2
I0525 16:42:08.060940 24130 net.cpp:84] Creating Layer pool2
I0525 16:42:08.060941 24130 net.cpp:406] pool2 <- relu2
I0525 16:42:08.060945 24130 net.cpp:380] pool2 -> pool2
I0525 16:42:08.060972 24130 net.cpp:122] Setting up pool2
I0525 16:42:08.060976 24130 net.cpp:129] Top shape: 1 50 6 6 (1800)
I0525 16:42:08.060979 24130 net.cpp:137] Memory required for data: 343248
I0525 16:42:08.060981 24130 layer_factory.hpp:77] Creating layer fc1
I0525 16:42:08.060986 24130 net.cpp:84] Creating Layer fc1
I0525 16:42:08.060988 24130 net.cpp:406] fc1 <- pool2
I0525 16:42:08.060993 24130 net.cpp:380] fc1 -> fc1
I0525 16:42:08.065198 24130 net.cpp:122] Setting up fc1
I0525 16:42:08.065208 24130 net.cpp:129] Top shape: 1 500 (500)
I0525 16:42:08.065210 24130 net.cpp:137] Memory required for data: 345248
I0525 16:42:08.065215 24130 layer_factory.hpp:77] Creating layer relu3
I0525 16:42:08.065219 24130 net.cpp:84] Creating Layer relu3
I0525 16:42:08.065237 24130 net.cpp:406] relu3 <- fc1
I0525 16:42:08.065243 24130 net.cpp:380] relu3 -> relu3
I0525 16:42:08.065330 24130 net.cpp:122] Setting up relu3
I0525 16:42:08.065335 24130 net.cpp:129] Top shape: 1 500 (500)
I0525 16:42:08.065336 24130 net.cpp:137] Memory required for data: 347248
I0525 16:42:08.065338 24130 layer_factory.hpp:77] Creating layer fc2
I0525 16:42:08.065344 24130 net.cpp:84] Creating Layer fc2
I0525 16:42:08.065346 24130 net.cpp:406] fc2 <- relu3
I0525 16:42:08.065351 24130 net.cpp:380] fc2 -> fc2
I0525 16:42:08.065430 24130 net.cpp:122] Setting up fc2
I0525 16:42:08.065435 24130 net.cpp:129] Top shape: 1 10 (10)
I0525 16:42:08.065438 24130 net.cpp:137] Memory required for data: 347288
I0525 16:42:08.065443 24130 layer_factory.hpp:77] Creating layer prob
I0525 16:42:08.065446 24130 net.cpp:84] Creating Layer prob
I0525 16:42:08.065448 24130 net.cpp:406] prob <- fc2
I0525 16:42:08.065454 24130 net.cpp:380] prob -> prob
I0525 16:42:08.065665 24130 net.cpp:122] Setting up prob
I0525 16:42:08.065671 24130 net.cpp:129] Top shape: 1 10 (10)
I0525 16:42:08.065672 24130 net.cpp:137] Memory required for data: 347328
I0525 16:42:08.065675 24130 net.cpp:200] prob does not need backward computation.
I0525 16:42:08.065678 24130 net.cpp:200] fc2 does not need backward computation.
I0525 16:42:08.065680 24130 net.cpp:200] relu3 does not need backward computation.
I0525 16:42:08.065682 24130 net.cpp:200] fc1 does not need backward computation.
…
