…
I0429 12:57:08.582984  4493 net.cpp:369] The NetState phase (0) differed from the phase (1) specified by a rule in layer accuracy-top5
I0429 12:57:08.583168  4493 net.cpp:98] Initializing net from parameters: 
state {
  phase: TRAIN
}
layer {
  name: "data"
  type: "ImageData"
  top: "data"
  top: "label"
  include {
    phase: TRAIN
  }
  transform_param {
    mean_value: 33.68
    mean_value: 33.68
    mean_value: 33.68
  }
  image_data_param {
    source: "/home/ubuntu/ML/mnist/deephi/LeNet/quantiz/data/calib/calibration.txt"
    batch_size: 10
    shuffle: true
    root_folder: "/home/ubuntu/ML/mnist/deephi/LeNet/quantiz/data/calib/"
  }
}
layer {
  name: "data_fixed"
  type: "FixedNeuron"
  bottom: "data"
  top: "data"
  param {
    lr_mult: 0
    decay_mult: 0
  }
  fixed_param {
    fixed_method: OVER_FLOW
    bit_width: 8
    follow_data_layer: true
  }
}
layer {
  name: "conv1"
  type: "ConvolutionFixed"
  bottom: "data"
  top: "scale1"
  param {
    lr_mult: 1
    decay_mult: 1
  }
  param {
    lr_mult: 1
    decay_mult: 0
  }
  convolution_param {
    num_output: 20
    bias_term: true
    pad: 1
    kernel_size: 5
    stride: 1
    weight_filler {
      type: "xavier"
    }
    bias_filler {
      type: "constant"
      value: 0
    }
  }
  fixed_param {
    fixed_method: DIFF_S
    bit_width: 8
  }
}
layer {
  name: "relu1"
  type: "ReLU"
  bottom: "scale1"
  top: "relu1"
}
layer {
  name: "pool1"
  type: "Pooling"
  bottom: "relu1"
  top: "pool1"
  pooling_param {
    pool: MAX
    kernel_size: 2
    stride: 2
  }
}
layer {
  name: "pool1_fixed"
  type: "FixedNeuron"
  bottom: "pool1"
  top: "pool1"
  param {
    lr_mult: 0
    decay_mult: 0
  }
  fixed_param {
    fixed_method: DIFF_S
    bit_width: 8
  }
}
layer {
  name: "conv2"
  type: "ConvolutionFixed"
  bottom: "pool1"
  top: "scale2"
  param {
    lr_mult: 1
    decay_mult: 1
  }
  param {
    lr_mult: 1
    decay_mult: 0
  }
  convolution_param {
    num_output: 50
    bias_term: true
    pad: 1
    kernel_size: 5
    stride: 1
    weight_filler {
      type: "xavier"
    }
    bias_filler {
      type: "constant"
      value: 0
    }
  }
  fixed_param {
    fixed_method: DIFF_S
    bit_width: 8
  }
}
layer {
  name: "relu2"
  type: "ReLU"
  bottom: "scale2"
  top: "relu2"
}
layer {
  name: "pool2"
  type: "Pooling"
  bottom: "relu2"
  top: "pool2"
  pooling_param {
    pool: MAX
    kernel_size: 2
    stride: 2
  }
}
layer {
  name: "pool2_fixed"
  type: "FixedNeuron"
  bottom: "pool2"
  top: "pool2"
  param {
    lr_mult: 0
    decay_mult: 0
  }
  fixed_param {
    fixed_method: DIFF_S
    bit_width: 8
  }
}
layer {
  name: "fc1"
  type: "InnerProductFixed"
  bottom: "pool2"
  top: "fc1"
  param {
    lr_mult: 1
    decay_mult: 1
  }
  param {
    lr_mult: 2
    decay_mult: 0
  }
  inner_product_param {
    num_output: 500
    weight_filler {
      type: "xavier"
    }
    bias_filler {
      type: "constant"
      value: 1
    }
  }
  fixed_param {
    fixed_method: DIFF_S
    bit_width: 8
  }
}
layer {
  name: "relu3"
  type: "ReLU"
  bottom: "fc1"
  top: "relu3"
}
layer {
  name: "relu3_fixed"
  type: "FixedNeuron"
  bottom: "relu3"
  top: "relu3"
  param {
    lr_mult: 0
    decay_mult: 0
  }
  fixed_param {
    fixed_method: DIFF_S
    bit_width: 8
  }
}
layer {
  name: "fc2"
  type: "InnerProductFixed"
  bottom: "relu3"
  top: "fc2"
  param {
    lr_mult: 1
    decay_mult: 1
  }
  param {
    lr_mult: 2
    decay_mult: 0
  }
  inner_product_param {
    num_output: 10
    weight_filler {
      type: "xavier"
    }
    bias_filler {
      type: "constant"
      value: 1
    }
  }
  fixed_param {
    fixed_method: DIFF_S
    bit_width: 8
  }
}
layer {
  name: "fc2_fixed"
  type: "FixedNeuron"
  bottom: "fc2"
  top: "fc2"
  param {
    lr_mult: 0
    decay_mult: 0
  }
  fixed_param {
    fixed_method: DIFF_S
    bit_width: 8
  }
}
layer {
  name: "loss"
  type: "SoftmaxWithLoss"
  bottom: "fc2"
  bottom: "label"
  top: "loss"
}
I0429 12:57:08.583250  4493 layer_factory.hpp:123] Creating layer data
I0429 12:57:08.583983  4493 net.cpp:140] Creating Layer data
I0429 12:57:08.584007  4493 net.cpp:455] data -> data
I0429 12:57:08.584028  4493 net.cpp:455] data -> label
I0429 12:57:08.584058  4493 image_data_layer.cpp:87] Opening file /home/ubuntu/ML/mnist/deephi/LeNet/quantiz/data/calib/calibration.txt
I0429 12:57:08.584331  4493 image_data_layer.cpp:97] Shuffling data
I0429 12:57:08.584698  4493 image_data_layer.cpp:102] A total of 1000 images.
I0429 12:57:08.584913  4493 image_data_layer.cpp:130] output data size: 10,3,28,28
I0429 12:57:08.586567  4493 internal_thread.cpp:73] Starting internal thread(s) on GPU 0
I0429 12:57:08.587098  4493 net.cpp:190] Setting up data
I0429 12:57:08.587117  4493 net.cpp:197] Top shape: 10 3 28 28 (23520)
I0429 12:57:08.587126  4493 net.cpp:197] Top shape: 10 (10)
I0429 12:57:08.587131  4493 net.cpp:205] Memory required for data: 94120
I0429 12:57:08.587137  4493 layer_factory.hpp:123] Creating layer data_fixed
I0429 12:57:08.587150  4493 net.cpp:140] Creating Layer data_fixed
I0429 12:57:08.587157  4493 net.cpp:481] data_fixed <- data
I0429 12:57:08.587177  4493 net.cpp:442] data_fixed -> data (in-place)
I0429 12:57:08.587335  4493 net.cpp:190] Setting up data_fixed
I0429 12:57:08.587350  4493 net.cpp:197] Top shape: 10 3 28 28 (23520)
I0429 12:57:08.587357  4493 net.cpp:205] Memory required for data: 188200
I0429 12:57:08.587379  4493 layer_factory.hpp:123] Creating layer conv1
I0429 12:57:08.587406  4493 net.cpp:140] Creating Layer conv1
I0429 12:57:08.587420  4493 net.cpp:481] conv1 <- data
I0429 12:57:08.587432  4493 net.cpp:455] conv1 -> scale1
I0429 12:57:08.589120  4493 layer_factory.hpp:123] Creating layer conv1
I0429 12:57:08.590147  4493 net.cpp:190] Setting up conv1
I0429 12:57:08.590168  4493 net.cpp:197] Top shape: 10 20 26 26 (135200)
I0429 12:57:08.590175  4493 net.cpp:205] Memory required for data: 729000
I0429 12:57:08.590190  4493 layer_factory.hpp:123] Creating layer relu1
I0429 12:57:08.590201  4493 net.cpp:140] Creating Layer relu1
I0429 12:57:08.590210  4493 net.cpp:481] relu1 <- scale1
I0429 12:57:08.590219  4493 net.cpp:455] relu1 -> relu1
I0429 12:57:08.590261  4493 net.cpp:190] Setting up relu1
I0429 12:57:08.590278  4493 net.cpp:197] Top shape: 10 20 26 26 (135200)
I0429 12:57:08.590286  4493 net.cpp:205] Memory required for data: 1269800
I0429 12:57:08.590291  4493 layer_factory.hpp:123] Creating layer pool1
I0429 12:57:08.590301  4493 net.cpp:140] Creating Layer pool1
I0429 12:57:08.590309  4493 net.cpp:481] pool1 <- relu1
I0429 12:57:08.590318  4493 net.cpp:455] pool1 -> pool1
I0429 12:57:08.590368  4493 net.cpp:190] Setting up pool1
I0429 12:57:08.590384  4493 net.cpp:197] Top shape: 10 20 13 13 (33800)
I0429 12:57:08.590389  4493 net.cpp:205] Memory required for data: 1405000
I0429 12:57:08.590395  4493 layer_factory.hpp:123] Creating layer pool1_fixed
I0429 12:57:08.590404  4493 net.cpp:140] Creating Layer pool1_fixed
I0429 12:57:08.590411  4493 net.cpp:481] pool1_fixed <- pool1
I0429 12:57:08.590420  4493 net.cpp:442] pool1_fixed -> pool1 (in-place)
I0429 12:57:08.590467  4493 net.cpp:190] Setting up pool1_fixed
I0429 12:57:08.590482  4493 net.cpp:197] Top shape: 10 20 13 13 (33800)
I0429 12:57:08.590488  4493 net.cpp:205] Memory required for data: 1540200
I0429 12:57:08.590497  4493 layer_factory.hpp:123] Creating layer conv2
I0429 12:57:08.590510  4493 net.cpp:140] Creating Layer conv2
I0429 12:57:08.590519  4493 net.cpp:481] conv2 <- pool1
I0429 12:57:08.590528  4493 net.cpp:455] conv2 -> scale2
I0429 12:57:08.590871  4493 layer_factory.hpp:123] Creating layer conv2
I0429 12:57:08.592007  4493 net.cpp:190] Setting up conv2
I0429 12:57:08.592030  4493 net.cpp:197] Top shape: 10 50 11 11 (60500)
I0429 12:57:08.592037  4493 net.cpp:205] Memory required for data: 1782200
I0429 12:57:08.592049  4493 layer_factory.hpp:123] Creating layer relu2
I0429 12:57:08.592059  4493 net.cpp:140] Creating Layer relu2
I0429 12:57:08.592070  4493 net.cpp:481] relu2 <- scale2
I0429 12:57:08.592080  4493 net.cpp:455] relu2 -> relu2
I0429 12:57:08.592118  4493 net.cpp:190] Setting up relu2
I0429 12:57:08.592133  4493 net.cpp:197] Top shape: 10 50 11 11 (60500)
I0429 12:57:08.592159  4493 net.cpp:205] Memory required for data: 2024200
I0429 12:57:08.592172  4493 layer_factory.hpp:123] Creating layer pool2
I0429 12:57:08.592185  4493 net.cpp:140] Creating Layer pool2
I0429 12:57:08.592191  4493 net.cpp:481] pool2 <- relu2
I0429 12:57:08.592200  4493 net.cpp:455] pool2 -> pool2
I0429 12:57:08.592245  4493 net.cpp:190] Setting up pool2
I0429 12:57:08.592260  4493 net.cpp:197] Top shape: 10 50 6 6 (18000)
I0429 12:57:08.592267  4493 net.cpp:205] Memory required for data: 2096200
I0429 12:57:08.592272  4493 layer_factory.hpp:123] Creating layer pool2_fixed
I0429 12:57:08.592281  4493 net.cpp:140] Creating Layer pool2_fixed
I0429 12:57:08.592289  4493 net.cpp:481] pool2_fixed <- pool2
I0429 12:57:08.592298  4493 net.cpp:442] pool2_fixed -> pool2 (in-place)
I0429 12:57:08.592340  4493 net.cpp:190] Setting up pool2_fixed
I0429 12:57:08.592355  4493 net.cpp:197] Top shape: 10 50 6 6 (18000)
I0429 12:57:08.592362  4493 net.cpp:205] Memory required for data: 2168200
I0429 12:57:08.592370  4493 layer_factory.hpp:123] Creating layer fc1
I0429 12:57:08.592381  4493 net.cpp:140] Creating Layer fc1
I0429 12:57:08.592388  4493 net.cpp:481] fc1 <- pool2
I0429 12:57:08.592396  4493 net.cpp:455] fc1 -> fc1
I0429 12:57:08.601220  4493 layer_factory.hpp:123] Creating layer fc1
I0429 12:57:08.610078  4493 net.cpp:190] Setting up fc1
I0429 12:57:08.610105  4493 net.cpp:197] Top shape: 10 500 (5000)
I0429 12:57:08.610111  4493 net.cpp:205] Memory required for data: 2188200
I0429 12:57:08.610126  4493 layer_factory.hpp:123] Creating layer relu3
I0429 12:57:08.610137  4493 net.cpp:140] Creating Layer relu3
I0429 12:57:08.610143  4493 net.cpp:481] relu3 <- fc1
I0429 12:57:08.610153  4493 net.cpp:455] relu3 -> relu3
I0429 12:57:08.610194  4493 net.cpp:190] Setting up relu3
I0429 12:57:08.610209  4493 net.cpp:197] Top shape: 10 500 (5000)
I0429 12:57:08.610215  4493 net.cpp:205] Memory required for data: 2208200
I0429 12:57:08.610221  4493 layer_factory.hpp:123] Creating layer relu3_fixed
I0429 12:57:08.610231  4493 net.cpp:140] Creating Layer relu3_fixed
I0429 12:57:08.610237  4493 net.cpp:481] relu3_fixed <- relu3
I0429 12:57:08.610247  4493 net.cpp:442] relu3_fixed -> relu3 (in-place)
I0429 12:57:08.610292  4493 net.cpp:190] Setting up relu3_fixed
I0429 12:57:08.610307  4493 net.cpp:197] Top shape: 10 500 (5000)
I0429 12:57:08.610313  4493 net.cpp:205] Memory required for data: 2228200
I0429 12:57:08.610322  4493 layer_factory.hpp:123] Creating layer fc2
I0429 12:57:08.610334  4493 net.cpp:140] Creating Layer fc2
I0429 12:57:08.610342  4493 net.cpp:481] fc2 <- relu3
I0429 12:57:08.610352  4493 net.cpp:455] fc2 -> fc2
I0429 12:57:08.611073  4493 layer_factory.hpp:123] Creating layer fc2
I0429 12:57:08.611268  4493 net.cpp:190] Setting up fc2
I0429 12:57:08.611286  4493 net.cpp:197] Top shape: 10 10 (100)
I0429 12:57:08.611292  4493 net.cpp:205] Memory required for data: 2228600
I0429 12:57:08.611302  4493 layer_factory.hpp:123] Creating layer fc2_fixed
I0429 12:57:08.611312  4493 net.cpp:140] Creating Layer fc2_fixed
I0429 12:57:08.611320  4493 net.cpp:481] fc2_fixed <- fc2
I0429 12:57:08.611328  4493 net.cpp:442] fc2_fixed -> fc2 (in-place)
I0429 12:57:08.611371  4493 net.cpp:190] Setting up fc2_fixed
I0429 12:57:08.611387  4493 net.cpp:197] Top shape: 10 10 (100)
I0429 12:57:08.611393  4493 net.cpp:205] Memory required for data: 2229000
I0429 12:57:08.611400  4493 layer_factory.hpp:123] Creating layer loss
I0429 12:57:08.611412  4493 net.cpp:140] Creating Layer loss
I0429 12:57:08.611418  4493 net.cpp:481] loss <- fc2
I0429 12:57:08.611424  4493 net.cpp:481] loss <- label
I0429 12:57:08.611433  4493 net.cpp:455] loss -> loss
I0429 12:57:08.611446  4493 layer_factory.hpp:123] Creating layer loss
…
I0429 12:57:09.008652  4493 net_test.cpp:369] Net type: other
I0429 12:57:09.008725  4493 net.cpp:369] The NetState phase (1) differed from the phase (0) specified by a rule in layer data
I0429 12:57:09.008901  4493 net.cpp:98] Initializing net from parameters: 
layer {
  name: "data"
  type: "Data"
  top: "data"
  top: "label"
  include {
    phase: TEST
  }
  transform_param {
    mirror: false
    mean_value: 33.68
    mean_value: 33.68
    mean_value: 33.68
  }
  data_param {
    source: "/home/ubuntu/ML/mnist/input/lmdb/valid_lmdb"
    batch_size: 50
    backend: LMDB
  }
}
layer {
  name: "data_fixed"
  type: "FixedNeuron"
  bottom: "data"
  top: "data"
  param {
    lr_mult: 0
    decay_mult: 0
  }
  fixed_param {
    fixed_method: OVER_FLOW
    bit_width: 8
    follow_data_layer: true
  }
}
layer {
  name: "conv1"
  type: "ConvolutionFixed"
  bottom: "data"
  top: "scale1"
  param {
    lr_mult: 1
    decay_mult: 1
  }
  param {
    lr_mult: 1
    decay_mult: 0
  }
  convolution_param {
    num_output: 20
    bias_term: true
    pad: 1
    kernel_size: 5
    stride: 1
    weight_filler {
      type: "xavier"
    }
    bias_filler {
      type: "constant"
      value: 0
    }
  }
  fixed_param {
    fixed_method: DIFF_S
    bit_width: 8
  }
}
layer {
  name: "relu1"
  type: "ReLU"
  bottom: "scale1"
  top: "relu1"
}
layer {
  name: "pool1"
  type: "Pooling"
  bottom: "relu1"
  top: "pool1"
  pooling_param {
    pool: MAX
    kernel_size: 2
    stride: 2
  }
}
layer {
  name: "pool1_fixed"
  type: "FixedNeuron"
  bottom: "pool1"
  top: "pool1"
  param {
    lr_mult: 0
    decay_mult: 0
  }
  fixed_param {
    fixed_method: DIFF_S
    bit_width: 8
  }
}
layer {
  name: "conv2"
  type: "ConvolutionFixed"
  bottom: "pool1"
  top: "scale2"
  param {
    lr_mult: 1
    decay_mult: 1
  }
  param {
    lr_mult: 1
    decay_mult: 0
  }
  convolution_param {
    num_output: 50
    bias_term: true
    pad: 1
    kernel_size: 5
    stride: 1
    weight_filler {
      type: "xavier"
    }
    bias_filler {
      type: "constant"
      value: 0
    }
  }
  fixed_param {
    fixed_method: DIFF_S
    bit_width: 8
  }
}
layer {
  name: "relu2"
  type: "ReLU"
  bottom: "scale2"
  top: "relu2"
}
layer {
  name: "pool2"
  type: "Pooling"
  bottom: "relu2"
  top: "pool2"
  pooling_param {
    pool: MAX
    kernel_size: 2
    stride: 2
  }
}
layer {
  name: "pool2_fixed"
  type: "FixedNeuron"
  bottom: "pool2"
  top: "pool2"
  param {
    lr_mult: 0
    decay_mult: 0
  }
  fixed_param {
    fixed_method: DIFF_S
    bit_width: 8
  }
}
layer {
  name: "fc1"
  type: "InnerProductFixed"
  bottom: "pool2"
  top: "fc1"
  param {
    lr_mult: 1
    decay_mult: 1
  }
  param {
    lr_mult: 2
    decay_mult: 0
  }
  inner_product_param {
    num_output: 500
    weight_filler {
      type: "xavier"
    }
    bias_filler {
      type: "constant"
      value: 1
    }
  }
  fixed_param {
    fixed_method: DIFF_S
    bit_width: 8
  }
}
layer {
  name: "relu3"
  type: "ReLU"
  bottom: "fc1"
  top: "relu3"
}
layer {
  name: "relu3_fixed"
  type: "FixedNeuron"
  bottom: "relu3"
  top: "relu3"
  param {
    lr_mult: 0
    decay_mult: 0
  }
  fixed_param {
    fixed_method: DIFF_S
    bit_width: 8
  }
}
layer {
  name: "fc2"
  type: "InnerProductFixed"
  bottom: "relu3"
  top: "fc2"
  param {
    lr_mult: 1
    decay_mult: 1
  }
  param {
    lr_mult: 2
    decay_mult: 0
  }
  inner_product_param {
    num_output: 10
    weight_filler {
      type: "xavier"
    }
    bias_filler {
      type: "constant"
      value: 1
    }
  }
  fixed_param {
    fixed_method: DIFF_S
    bit_width: 8
  }
}
layer {
  name: "fc2_fixed"
  type: "FixedNeuron"
  bottom: "fc2"
  top: "fc2"
  param {
    lr_mult: 0
    decay_mult: 0
  }
  fixed_param {
    fixed_method: DIFF_S
    bit_width: 8
  }
}
layer {
  name: "loss"
  type: "SoftmaxWithLoss"
  bottom: "fc2"
  bottom: "label"
  top: "loss"
}
layer {
  name: "accuracy"
  type: "Accuracy"
  bottom: "fc2"
  bottom: "label"
  top: "accuracy"
  include {
    phase: TEST
  }
}
layer {
  name: "accuracy-top1"
  type: "Accuracy"
  bottom: "fc2"
  bottom: "label"
  top: "top-1"
  include {
    phase: TEST
  }
}
layer {
  name: "accuracy-top5"
  type: "Accuracy"
  bottom: "fc2"
  bottom: "label"
  top: "top-5"
  include {
    phase: TEST
  }
  accuracy_param {
    top_k: 5
  }
}
I0429 12:57:09.009028  4493 layer_factory.hpp:123] Creating layer data
I0429 12:57:09.009100  4493 internal_thread.cpp:73] Starting internal thread(s) on GPU 0
I0429 12:57:09.009645  4493 net.cpp:140] Creating Layer data
I0429 12:57:09.009658  4493 net.cpp:455] data -> data
I0429 12:57:09.009672  4493 net.cpp:455] data -> label
I0429 12:57:09.010696  4502 db_lmdb.cpp:81] Opened lmdb /home/ubuntu/ML/mnist/input/lmdb/valid_lmdb
I0429 12:57:09.010736  4502 data_reader.cpp:166] TEST: reading data using 1 channel(s)
I0429 12:57:09.010820  4493 data_layer.cpp:124] ReshapePrefetch 50, 3, 28, 28
I0429 12:57:09.010927  4493 data_layer.cpp:129] output data size: 50,3,28,28
I0429 12:57:09.015071  4493 internal_thread.cpp:73] Starting internal thread(s) on GPU 0
I0429 12:57:09.015134  4493 net.cpp:190] Setting up data
I0429 12:57:09.015149  4493 net.cpp:197] Top shape: 50 3 28 28 (117600)
I0429 12:57:09.015156  4493 net.cpp:197] Top shape: 50 (50)
I0429 12:57:09.015161  4493 net.cpp:205] Memory required for data: 470600
I0429 12:57:09.015168  4493 layer_factory.hpp:123] Creating layer label_data_1_split
I0429 12:57:09.015180  4493 net.cpp:140] Creating Layer label_data_1_split
I0429 12:57:09.015190  4493 net.cpp:481] label_data_1_split <- label
I0429 12:57:09.015202  4493 net.cpp:455] label_data_1_split -> label_data_1_split_0
I0429 12:57:09.015215  4493 net.cpp:455] label_data_1_split -> label_data_1_split_1
I0429 12:57:09.015228  4493 net.cpp:455] label_data_1_split -> label_data_1_split_2
I0429 12:57:09.015239  4493 net.cpp:455] label_data_1_split -> label_data_1_split_3
I0429 12:57:09.015385  4493 net.cpp:190] Setting up label_data_1_split
I0429 12:57:09.015400  4493 net.cpp:197] Top shape: 50 (50)
I0429 12:57:09.015408  4493 net.cpp:197] Top shape: 50 (50)
I0429 12:57:09.015414  4493 net.cpp:197] Top shape: 50 (50)
I0429 12:57:09.015420  4493 net.cpp:197] Top shape: 50 (50)
I0429 12:57:09.015425  4493 net.cpp:205] Memory required for data: 471400
I0429 12:57:09.015431  4493 layer_factory.hpp:123] Creating layer data_fixed
I0429 12:57:09.015441  4493 net.cpp:140] Creating Layer data_fixed
I0429 12:57:09.015447  4493 net.cpp:481] data_fixed <- data
I0429 12:57:09.015457  4493 net.cpp:442] data_fixed -> data (in-place)
I0429 12:57:09.015504  4493 net.cpp:190] Setting up data_fixed
I0429 12:57:09.015518  4493 net.cpp:197] Top shape: 50 3 28 28 (117600)
I0429 12:57:09.015525  4493 net.cpp:205] Memory required for data: 941800
I0429 12:57:09.015537  4493 layer_factory.hpp:123] Creating layer conv1
I0429 12:57:09.015552  4493 net.cpp:140] Creating Layer conv1
I0429 12:57:09.015563  4493 net.cpp:481] conv1 <- data
I0429 12:57:09.015575  4493 net.cpp:455] conv1 -> scale1
I0429 12:57:09.016458  4493 layer_factory.hpp:123] Creating layer conv1
I0429 12:57:09.017684  4493 net.cpp:190] Setting up conv1
I0429 12:57:09.017704  4493 net.cpp:197] Top shape: 50 20 26 26 (676000)
I0429 12:57:09.017711  4493 net.cpp:205] Memory required for data: 3645800
I0429 12:57:09.017724  4493 layer_factory.hpp:123] Creating layer relu1
I0429 12:57:09.017736  4493 net.cpp:140] Creating Layer relu1
I0429 12:57:09.017742  4493 net.cpp:481] relu1 <- scale1
I0429 12:57:09.017751  4493 net.cpp:455] relu1 -> relu1
I0429 12:57:09.017817  4493 net.cpp:190] Setting up relu1
I0429 12:57:09.017830  4493 net.cpp:197] Top shape: 50 20 26 26 (676000)
I0429 12:57:09.017838  4493 net.cpp:205] Memory required for data: 6349800
I0429 12:57:09.017843  4493 layer_factory.hpp:123] Creating layer pool1
I0429 12:57:09.017853  4493 net.cpp:140] Creating Layer pool1
I0429 12:57:09.017859  4493 net.cpp:481] pool1 <- relu1
I0429 12:57:09.017868  4493 net.cpp:455] pool1 -> pool1
I0429 12:57:09.017993  4493 net.cpp:190] Setting up pool1
I0429 12:57:09.018012  4493 net.cpp:197] Top shape: 50 20 13 13 (169000)
I0429 12:57:09.018018  4493 net.cpp:205] Memory required for data: 7025800
I0429 12:57:09.018023  4493 layer_factory.hpp:123] Creating layer pool1_fixed
I0429 12:57:09.018033  4493 net.cpp:140] Creating Layer pool1_fixed
I0429 12:57:09.018038  4493 net.cpp:481] pool1_fixed <- pool1
I0429 12:57:09.018046  4493 net.cpp:442] pool1_fixed -> pool1 (in-place)
I0429 12:57:09.018093  4493 net.cpp:190] Setting up pool1_fixed
I0429 12:57:09.018108  4493 net.cpp:197] Top shape: 50 20 13 13 (169000)
I0429 12:57:09.018115  4493 net.cpp:205] Memory required for data: 7701800
I0429 12:57:09.018123  4493 layer_factory.hpp:123] Creating layer conv2
I0429 12:57:09.018138  4493 net.cpp:140] Creating Layer conv2
I0429 12:57:09.018144  4493 net.cpp:481] conv2 <- pool1
I0429 12:57:09.018154  4493 net.cpp:455] conv2 -> scale2
I0429 12:57:09.019068  4493 layer_factory.hpp:123] Creating layer conv2
I0429 12:57:09.019723  4493 net.cpp:190] Setting up conv2
I0429 12:57:09.019743  4493 net.cpp:197] Top shape: 50 50 11 11 (302500)
I0429 12:57:09.019752  4493 net.cpp:205] Memory required for data: 8911800
I0429 12:57:09.019783  4493 layer_factory.hpp:123] Creating layer relu2
I0429 12:57:09.019801  4493 net.cpp:140] Creating Layer relu2
I0429 12:57:09.019809  4493 net.cpp:481] relu2 <- scale2
I0429 12:57:09.019819  4493 net.cpp:455] relu2 -> relu2
I0429 12:57:09.019860  4493 net.cpp:190] Setting up relu2
I0429 12:57:09.019876  4493 net.cpp:197] Top shape: 50 50 11 11 (302500)
I0429 12:57:09.019882  4493 net.cpp:205] Memory required for data: 10121800
I0429 12:57:09.019888  4493 layer_factory.hpp:123] Creating layer pool2
I0429 12:57:09.019899  4493 net.cpp:140] Creating Layer pool2
I0429 12:57:09.019906  4493 net.cpp:481] pool2 <- relu2
I0429 12:57:09.019914  4493 net.cpp:455] pool2 -> pool2
I0429 12:57:09.019979  4493 net.cpp:190] Setting up pool2
I0429 12:57:09.019994  4493 net.cpp:197] Top shape: 50 50 6 6 (90000)
I0429 12:57:09.020001  4493 net.cpp:205] Memory required for data: 10481800
I0429 12:57:09.020006  4493 layer_factory.hpp:123] Creating layer pool2_fixed
I0429 12:57:09.020015  4493 net.cpp:140] Creating Layer pool2_fixed
I0429 12:57:09.020021  4493 net.cpp:481] pool2_fixed <- pool2
I0429 12:57:09.020030  4493 net.cpp:442] pool2_fixed -> pool2 (in-place)
I0429 12:57:09.020072  4493 net.cpp:190] Setting up pool2_fixed
I0429 12:57:09.020087  4493 net.cpp:197] Top shape: 50 50 6 6 (90000)
I0429 12:57:09.020094  4493 net.cpp:205] Memory required for data: 10841800
I0429 12:57:09.020102  4493 layer_factory.hpp:123] Creating layer fc1
I0429 12:57:09.020113  4493 net.cpp:140] Creating Layer fc1
I0429 12:57:09.020123  4493 net.cpp:481] fc1 <- pool2
I0429 12:57:09.020133  4493 net.cpp:455] fc1 -> fc1
I0429 12:57:09.028880  4493 layer_factory.hpp:123] Creating layer fc1
I0429 12:57:09.037681  4493 net.cpp:190] Setting up fc1
I0429 12:57:09.037706  4493 net.cpp:197] Top shape: 50 500 (25000)
I0429 12:57:09.037714  4493 net.cpp:205] Memory required for data: 10941800
I0429 12:57:09.037727  4493 layer_factory.hpp:123] Creating layer relu3
I0429 12:57:09.037739  4493 net.cpp:140] Creating Layer relu3
I0429 12:57:09.037745  4493 net.cpp:481] relu3 <- fc1
I0429 12:57:09.037755  4493 net.cpp:455] relu3 -> relu3
I0429 12:57:09.037793  4493 net.cpp:190] Setting up relu3
I0429 12:57:09.037804  4493 net.cpp:197] Top shape: 50 500 (25000)
I0429 12:57:09.037809  4493 net.cpp:205] Memory required for data: 11041800
I0429 12:57:09.037814  4493 layer_factory.hpp:123] Creating layer relu3_fixed
I0429 12:57:09.037824  4493 net.cpp:140] Creating Layer relu3_fixed
I0429 12:57:09.037830  4493 net.cpp:481] relu3_fixed <- relu3
I0429 12:57:09.037840  4493 net.cpp:442] relu3_fixed -> relu3 (in-place)
I0429 12:57:09.037892  4493 net.cpp:190] Setting up relu3_fixed
I0429 12:57:09.037902  4493 net.cpp:197] Top shape: 50 500 (25000)
I0429 12:57:09.037907  4493 net.cpp:205] Memory required for data: 11141800
I0429 12:57:09.037914  4493 layer_factory.hpp:123] Creating layer fc2
I0429 12:57:09.037926  4493 net.cpp:140] Creating Layer fc2
I0429 12:57:09.037931  4493 net.cpp:481] fc2 <- relu3
I0429 12:57:09.037941  4493 net.cpp:455] fc2 -> fc2
I0429 12:57:09.038686  4493 layer_factory.hpp:123] Creating layer fc2
I0429 12:57:09.038918  4493 net.cpp:190] Setting up fc2
I0429 12:57:09.038938  4493 net.cpp:197] Top shape: 50 10 (500)
I0429 12:57:09.038944  4493 net.cpp:205] Memory required for data: 11143800
I0429 12:57:09.038954  4493 layer_factory.hpp:123] Creating layer fc2_fixed
I0429 12:57:09.038964  4493 net.cpp:140] Creating Layer fc2_fixed
I0429 12:57:09.038970  4493 net.cpp:481] fc2_fixed <- fc2
I0429 12:57:09.038980  4493 net.cpp:442] fc2_fixed -> fc2 (in-place)
I0429 12:57:09.039034  4493 net.cpp:190] Setting up fc2_fixed
I0429 12:57:09.039045  4493 net.cpp:197] Top shape: 50 10 (500)
I0429 12:57:09.039049  4493 net.cpp:205] Memory required for data: 11145800
I0429 12:57:09.039057  4493 layer_factory.hpp:123] Creating layer fc2_fc2_fixed_0_split
I0429 12:57:09.039070  4493 net.cpp:140] Creating Layer fc2_fc2_fixed_0_split
I0429 12:57:09.039077  4493 net.cpp:481] fc2_fc2_fixed_0_split <- fc2
I0429 12:57:09.039085  4493 net.cpp:455] fc2_fc2_fixed_0_split -> fc2_fc2_fixed_0_split_0
I0429 12:57:09.039098  4493 net.cpp:455] fc2_fc2_fixed_0_split -> fc2_fc2_fixed_0_split_1
I0429 12:57:09.039111  4493 net.cpp:455] fc2_fc2_fixed_0_split -> fc2_fc2_fixed_0_split_2
I0429 12:57:09.039121  4493 net.cpp:455] fc2_fc2_fixed_0_split -> fc2_fc2_fixed_0_split_3
I0429 12:57:09.039211  4493 net.cpp:190] Setting up fc2_fc2_fixed_0_split
I0429 12:57:09.039221  4493 net.cpp:197] Top shape: 50 10 (500)
I0429 12:57:09.039228  4493 net.cpp:197] Top shape: 50 10 (500)
I0429 12:57:09.039233  4493 net.cpp:197] Top shape: 50 10 (500)
I0429 12:57:09.039239  4493 net.cpp:197] Top shape: 50 10 (500)
I0429 12:57:09.039244  4493 net.cpp:205] Memory required for data: 11153800
I0429 12:57:09.039250  4493 layer_factory.hpp:123] Creating layer loss
I0429 12:57:09.039260  4493 net.cpp:140] Creating Layer loss
I0429 12:57:09.039266  4493 net.cpp:481] loss <- fc2_fc2_fixed_0_split_0
I0429 12:57:09.039274  4493 net.cpp:481] loss <- label_data_1_split_0
I0429 12:57:09.039283  4493 net.cpp:455] loss -> loss
…
