…
I0525 16:53:59.783597 24657 net.cpp:369] The NetState phase (0) differed from the phase (1) specified by a rule in layer accuracy-top5
I0525 16:53:59.783701 24657 net.cpp:98] Initializing net from parameters: 
state {
  phase: TRAIN
}
layer {
  name: "data"
  type: "ImageData"
  top: "data"
  top: "label"
  include {
    phase: TRAIN
  }
  transform_param {
    mean_value: 33.68
    mean_value: 33.68
    mean_value: 33.68
  }
  image_data_param {
    source: "/home/danieleb/ML/mnist/deephi/LeNet/quantiz/data/calib/calibration.txt"
    batch_size: 10
    shuffle: true
    root_folder: "/home/danieleb/ML/mnist/deephi/LeNet/quantiz/data/calib/"
  }
}
layer {
  name: "conv1"
  type: "Convolution"
  bottom: "data"
  top: "conv1"
  param {
    lr_mult: 1
    decay_mult: 1
  }
  param {
    lr_mult: 2
    decay_mult: 0
  }
  convolution_param {
    num_output: 20
    pad: 1
    kernel_size: 5
    stride: 1
    weight_filler {
      type: "xavier"
    }
    bias_filler {
      type: "constant"
      value: 0
    }
  }
}
layer {
  name: "bn1"
  type: "BatchNorm"
  bottom: "conv1"
  top: "scale1"
  param {
    lr_mult: 1
    decay_mult: 0
  }
  param {
    lr_mult: 1
    decay_mult: 0
  }
  param {
    lr_mult: 0
    decay_mult: 0
  }
  param {
    lr_mult: 0
    decay_mult: 0
  }
  batch_norm_param {
    use_global_stats: false
    scale_filler {
      type: "constant"
      value: 1
    }
    bias_filler {
      type: "constant"
      value: 0
    }
  }
}
layer {
  name: "relu1"
  type: "ReLU"
  bottom: "scale1"
  top: "relu1"
}
layer {
  name: "pool1"
  type: "Pooling"
  bottom: "relu1"
  top: "pool1"
  pooling_param {
    pool: MAX
    kernel_size: 2
    stride: 2
  }
}
layer {
  name: "conv2"
  type: "Convolution"
  bottom: "pool1"
  top: "conv2"
  param {
    lr_mult: 1
    decay_mult: 1
  }
  param {
    lr_mult: 2
    decay_mult: 0
  }
  convolution_param {
    num_output: 50
    pad: 1
    kernel_size: 5
    stride: 1
    weight_filler {
      type: "xavier"
    }
    bias_filler {
      type: "constant"
      value: 0
    }
  }
}
layer {
  name: "bn2"
  type: "BatchNorm"
  bottom: "conv2"
  top: "scale2"
  param {
    lr_mult: 1
    decay_mult: 0
  }
  param {
    lr_mult: 1
    decay_mult: 0
  }
  param {
    lr_mult: 0
    decay_mult: 0
  }
  param {
    lr_mult: 0
    decay_mult: 0
  }
  batch_norm_param {
    use_global_stats: false
    scale_filler {
      type: "constant"
      value: 1
    }
    bias_filler {
      type: "constant"
      value: 0
    }
  }
}
layer {
  name: "relu2"
  type: "ReLU"
  bottom: "scale2"
  top: "relu2"
}
layer {
  name: "pool2"
  type: "Pooling"
  bottom: "relu2"
  top: "pool2"
  pooling_param {
    pool: MAX
    kernel_size: 2
    stride: 2
  }
}
layer {
  name: "fc1"
  type: "InnerProduct"
  bottom: "pool2"
  top: "fc1"
  param {
    lr_mult: 1
    decay_mult: 1
  }
  param {
    lr_mult: 2
    decay_mult: 0
  }
  inner_product_param {
    num_output: 500
    weight_filler {
      type: "xavier"
    }
    bias_filler {
      type: "constant"
      value: 1
    }
  }
}
layer {
  name: "relu3"
  type: "ReLU"
  bottom: "fc1"
  top: "relu3"
}
layer {
  name: "fc2"
  type: "InnerProduct"
  bottom: "relu3"
  top: "fc2"
  param {
    lr_mult: 1
    decay_mult: 1
  }
  param {
    lr_mult: 2
    decay_mult: 0
  }
  inner_product_param {
    num_output: 10
    weight_filler {
      type: "xavier"
    }
    bias_filler {
      type: "constant"
      value: 1
    }
  }
}
layer {
  name: "loss"
  type: "SoftmaxWithLoss"
  bottom: "fc2"
  bottom: "label"
  top: "loss"
}
I0525 16:53:59.783733 24657 layer_factory.hpp:123] Creating layer data
I0525 16:53:59.783748 24657 net.cpp:140] Creating Layer data
I0525 16:53:59.783752 24657 net.cpp:455] data -> data
I0525 16:53:59.783758 24657 net.cpp:455] data -> label
I0525 16:53:59.783767 24657 image_data_layer.cpp:87] Opening file /home/danieleb/ML/mnist/deephi/LeNet/quantiz/data/calib/calibration.txt
I0525 16:53:59.784111 24657 image_data_layer.cpp:97] Shuffling data
I0525 16:53:59.784427 24657 image_data_layer.cpp:102] A total of 2000 images.
I0525 16:53:59.784647 24657 image_data_layer.cpp:130] output data size: 10,3,28,28
I0525 16:53:59.785301 24657 internal_thread.cpp:73] Starting internal thread(s) on GPU 0
I0525 16:53:59.785344 24657 net.cpp:190] Setting up data
I0525 16:53:59.785351 24657 net.cpp:197] Top shape: 10 3 28 28 (23520)
I0525 16:53:59.785354 24657 net.cpp:197] Top shape: 10 (10)
I0525 16:53:59.785356 24657 net.cpp:205] Memory required for data: 94120
I0525 16:53:59.785358 24657 layer_factory.hpp:123] Creating layer conv1
I0525 16:53:59.785367 24657 net.cpp:140] Creating Layer conv1
I0525 16:53:59.785369 24657 net.cpp:481] conv1 <- data
I0525 16:53:59.785377 24657 net.cpp:455] conv1 -> conv1
I0525 16:53:59.785674 24657 net.cpp:190] Setting up conv1
I0525 16:53:59.785679 24657 net.cpp:197] Top shape: 10 20 26 26 (135200)
I0525 16:53:59.785681 24657 net.cpp:205] Memory required for data: 634920
I0525 16:53:59.785696 24657 layer_factory.hpp:123] Creating layer bn1
I0525 16:53:59.785701 24657 net.cpp:140] Creating Layer bn1
I0525 16:53:59.785703 24657 net.cpp:481] bn1 <- conv1
I0525 16:53:59.785707 24657 net.cpp:455] bn1 -> scale1
I0525 16:53:59.786247 24657 net.cpp:190] Setting up bn1
I0525 16:53:59.786252 24657 net.cpp:197] Top shape: 10 20 26 26 (135200)
I0525 16:53:59.786254 24657 net.cpp:205] Memory required for data: 1175720
I0525 16:53:59.786262 24657 layer_factory.hpp:123] Creating layer relu1
I0525 16:53:59.786267 24657 net.cpp:140] Creating Layer relu1
I0525 16:53:59.786270 24657 net.cpp:481] relu1 <- scale1
I0525 16:53:59.786273 24657 net.cpp:455] relu1 -> relu1
I0525 16:53:59.786288 24657 net.cpp:190] Setting up relu1
I0525 16:53:59.786293 24657 net.cpp:197] Top shape: 10 20 26 26 (135200)
I0525 16:53:59.786294 24657 net.cpp:205] Memory required for data: 1716520
I0525 16:53:59.786296 24657 layer_factory.hpp:123] Creating layer pool1
I0525 16:53:59.786300 24657 net.cpp:140] Creating Layer pool1
I0525 16:53:59.786303 24657 net.cpp:481] pool1 <- relu1
I0525 16:53:59.786305 24657 net.cpp:455] pool1 -> pool1
I0525 16:53:59.786325 24657 net.cpp:190] Setting up pool1
I0525 16:53:59.786327 24657 net.cpp:197] Top shape: 10 20 13 13 (33800)
I0525 16:53:59.786330 24657 net.cpp:205] Memory required for data: 1851720
I0525 16:53:59.786331 24657 layer_factory.hpp:123] Creating layer conv2
I0525 16:53:59.786337 24657 net.cpp:140] Creating Layer conv2
I0525 16:53:59.786339 24657 net.cpp:481] conv2 <- pool1
I0525 16:53:59.786342 24657 net.cpp:455] conv2 -> conv2
I0525 16:53:59.786598 24657 net.cpp:190] Setting up conv2
I0525 16:53:59.786603 24657 net.cpp:197] Top shape: 10 50 11 11 (60500)
I0525 16:53:59.786605 24657 net.cpp:205] Memory required for data: 2093720
I0525 16:53:59.786612 24657 layer_factory.hpp:123] Creating layer bn2
I0525 16:53:59.786615 24657 net.cpp:140] Creating Layer bn2
I0525 16:53:59.786617 24657 net.cpp:481] bn2 <- conv2
I0525 16:53:59.786622 24657 net.cpp:455] bn2 -> scale2
I0525 16:53:59.787048 24657 net.cpp:190] Setting up bn2
I0525 16:53:59.787055 24657 net.cpp:197] Top shape: 10 50 11 11 (60500)
I0525 16:53:59.787056 24657 net.cpp:205] Memory required for data: 2335720
I0525 16:53:59.787062 24657 layer_factory.hpp:123] Creating layer relu2
I0525 16:53:59.787066 24657 net.cpp:140] Creating Layer relu2
I0525 16:53:59.787070 24657 net.cpp:481] relu2 <- scale2
I0525 16:53:59.787072 24657 net.cpp:455] relu2 -> relu2
I0525 16:53:59.787086 24657 net.cpp:190] Setting up relu2
I0525 16:53:59.787089 24657 net.cpp:197] Top shape: 10 50 11 11 (60500)
I0525 16:53:59.787091 24657 net.cpp:205] Memory required for data: 2577720
I0525 16:53:59.787093 24657 layer_factory.hpp:123] Creating layer pool2
I0525 16:53:59.787097 24657 net.cpp:140] Creating Layer pool2
I0525 16:53:59.787101 24657 net.cpp:481] pool2 <- relu2
I0525 16:53:59.787104 24657 net.cpp:455] pool2 -> pool2
I0525 16:53:59.787124 24657 net.cpp:190] Setting up pool2
I0525 16:53:59.787130 24657 net.cpp:197] Top shape: 10 50 6 6 (18000)
I0525 16:53:59.787132 24657 net.cpp:205] Memory required for data: 2649720
I0525 16:53:59.787134 24657 layer_factory.hpp:123] Creating layer fc1
I0525 16:53:59.787139 24657 net.cpp:140] Creating Layer fc1
I0525 16:53:59.787142 24657 net.cpp:481] fc1 <- pool2
I0525 16:53:59.787145 24657 net.cpp:455] fc1 -> fc1
I0525 16:53:59.792488 24657 net.cpp:190] Setting up fc1
I0525 16:53:59.792500 24657 net.cpp:197] Top shape: 10 500 (5000)
I0525 16:53:59.792502 24657 net.cpp:205] Memory required for data: 2669720
I0525 16:53:59.792507 24657 layer_factory.hpp:123] Creating layer relu3
I0525 16:53:59.792512 24657 net.cpp:140] Creating Layer relu3
I0525 16:53:59.792515 24657 net.cpp:481] relu3 <- fc1
I0525 16:53:59.792518 24657 net.cpp:455] relu3 -> relu3
I0525 16:53:59.792533 24657 net.cpp:190] Setting up relu3
I0525 16:53:59.792536 24657 net.cpp:197] Top shape: 10 500 (5000)
I0525 16:53:59.792537 24657 net.cpp:205] Memory required for data: 2689720
I0525 16:53:59.792539 24657 layer_factory.hpp:123] Creating layer fc2
I0525 16:53:59.792544 24657 net.cpp:140] Creating Layer fc2
I0525 16:53:59.792546 24657 net.cpp:481] fc2 <- relu3
I0525 16:53:59.792549 24657 net.cpp:455] fc2 -> fc2
I0525 16:53:59.792639 24657 net.cpp:190] Setting up fc2
I0525 16:53:59.792644 24657 net.cpp:197] Top shape: 10 10 (100)
I0525 16:53:59.792645 24657 net.cpp:205] Memory required for data: 2690120
I0525 16:53:59.792650 24657 layer_factory.hpp:123] Creating layer loss
I0525 16:53:59.792656 24657 net.cpp:140] Creating Layer loss
I0525 16:53:59.792659 24657 net.cpp:481] loss <- fc2
I0525 16:53:59.792660 24657 net.cpp:481] loss <- label
I0525 16:53:59.792663 24657 net.cpp:455] loss -> loss
I0525 16:53:59.792668 24657 layer_factory.hpp:123] Creating layer loss
…
I0525 16:53:59.803833 24657 net.cpp:369] The NetState phase (0) differed from the phase (1) specified by a rule in layer accuracy-top5
I0525 16:53:59.803926 24657 net.cpp:98] Initializing net from parameters: 
state {
  phase: TRAIN
}
layer {
  name: "data"
  type: "ImageData"
  top: "data"
  top: "label"
  include {
    phase: TRAIN
  }
  transform_param {
    mean_value: 33.68
    mean_value: 33.68
    mean_value: 33.68
  }
  image_data_param {
    source: "/home/danieleb/ML/mnist/deephi/LeNet/quantiz/data/calib/calibration.txt"
    batch_size: 10
    shuffle: true
    root_folder: "/home/danieleb/ML/mnist/deephi/LeNet/quantiz/data/calib/"
  }
}
layer {
  name: "data_fixed"
  type: "FixedNeuron"
  bottom: "data"
  top: "data"
  param {
    lr_mult: 0
    decay_mult: 0
  }
  fixed_param {
    fixed_method: OVER_FLOW
    bit_width: 8
    follow_data_layer: true
  }
}
layer {
  name: "conv1"
  type: "ConvolutionFixed"
  bottom: "data"
  top: "scale1"
  param {
    lr_mult: 1
    decay_mult: 1
  }
  param {
    lr_mult: 1
    decay_mult: 0
  }
  convolution_param {
    num_output: 20
    bias_term: true
    pad: 1
    kernel_size: 5
    stride: 1
    weight_filler {
      type: "xavier"
    }
    bias_filler {
      type: "constant"
      value: 0
    }
  }
  fixed_param {
    fixed_method: DIFF_S
    bit_width: 8
  }
}
layer {
  name: "relu1"
  type: "ReLU"
  bottom: "scale1"
  top: "relu1"
}
layer {
  name: "pool1"
  type: "Pooling"
  bottom: "relu1"
  top: "pool1"
  pooling_param {
    pool: MAX
    kernel_size: 2
    stride: 2
  }
}
layer {
  name: "pool1_fixed"
  type: "FixedNeuron"
  bottom: "pool1"
  top: "pool1"
  param {
    lr_mult: 0
    decay_mult: 0
  }
  fixed_param {
    fixed_method: DIFF_S
    bit_width: 8
  }
}
layer {
  name: "conv2"
  type: "ConvolutionFixed"
  bottom: "pool1"
  top: "scale2"
  param {
    lr_mult: 1
    decay_mult: 1
  }
  param {
    lr_mult: 1
    decay_mult: 0
  }
  convolution_param {
    num_output: 50
    bias_term: true
    pad: 1
    kernel_size: 5
    stride: 1
    weight_filler {
      type: "xavier"
    }
    bias_filler {
      type: "constant"
      value: 0
    }
  }
  fixed_param {
    fixed_method: DIFF_S
    bit_width: 8
  }
}
layer {
  name: "relu2"
  type: "ReLU"
  bottom: "scale2"
  top: "relu2"
}
layer {
  name: "pool2"
  type: "Pooling"
  bottom: "relu2"
  top: "pool2"
  pooling_param {
    pool: MAX
    kernel_size: 2
    stride: 2
  }
}
layer {
  name: "pool2_fixed"
  type: "FixedNeuron"
  bottom: "pool2"
  top: "pool2"
  param {
    lr_mult: 0
    decay_mult: 0
  }
  fixed_param {
    fixed_method: DIFF_S
    bit_width: 8
  }
}
layer {
  name: "fc1"
  type: "InnerProductFixed"
  bottom: "pool2"
  top: "fc1"
  param {
    lr_mult: 1
    decay_mult: 1
  }
  param {
    lr_mult: 2
    decay_mult: 0
  }
  inner_product_param {
    num_output: 500
    weight_filler {
      type: "xavier"
    }
    bias_filler {
      type: "constant"
      value: 1
    }
  }
  fixed_param {
    fixed_method: DIFF_S
    bit_width: 8
  }
}
layer {
  name: "relu3"
  type: "ReLU"
  bottom: "fc1"
  top: "relu3"
}
layer {
  name: "relu3_fixed"
  type: "FixedNeuron"
  bottom: "relu3"
  top: "relu3"
  param {
    lr_mult: 0
    decay_mult: 0
  }
  fixed_param {
    fixed_method: DIFF_S
    bit_width: 8
  }
}
layer {
  name: "fc2"
  type: "InnerProductFixed"
  bottom: "relu3"
  top: "fc2"
  param {
    lr_mult: 1
    decay_mult: 1
  }
  param {
    lr_mult: 2
    decay_mult: 0
  }
  inner_product_param {
    num_output: 10
    weight_filler {
      type: "xavier"
    }
    bias_filler {
      type: "constant"
      value: 1
    }
  }
  fixed_param {
    fixed_method: DIFF_S
    bit_width: 8
  }
}
layer {
  name: "fc2_fixed"
  type: "FixedNeuron"
  bottom: "fc2"
  top: "fc2"
  param {
    lr_mult: 0
    decay_mult: 0
  }
  fixed_param {
    fixed_method: DIFF_S
    bit_width: 8
  }
}
layer {
  name: "loss"
  type: "SoftmaxWithLoss"
  bottom: "fc2"
  bottom: "label"
  top: "loss"
}
I0525 16:53:59.803957 24657 layer_factory.hpp:123] Creating layer data
I0525 16:53:59.803966 24657 net.cpp:140] Creating Layer data
I0525 16:53:59.803970 24657 net.cpp:455] data -> data
I0525 16:53:59.803975 24657 net.cpp:455] data -> label
I0525 16:53:59.803982 24657 image_data_layer.cpp:87] Opening file /home/danieleb/ML/mnist/deephi/LeNet/quantiz/data/calib/calibration.txt
I0525 16:53:59.804293 24657 image_data_layer.cpp:97] Shuffling data
I0525 16:53:59.804317 24657 image_data_layer.cpp:102] A total of 2000 images.
I0525 16:53:59.804452 24657 image_data_layer.cpp:130] output data size: 10,3,28,28
I0525 16:53:59.805094 24657 internal_thread.cpp:73] Starting internal thread(s) on GPU 0
I0525 16:53:59.805135 24657 net.cpp:190] Setting up data
I0525 16:53:59.805142 24657 net.cpp:197] Top shape: 10 3 28 28 (23520)
I0525 16:53:59.805145 24657 net.cpp:197] Top shape: 10 (10)
I0525 16:53:59.805147 24657 net.cpp:205] Memory required for data: 94120
I0525 16:53:59.805150 24657 layer_factory.hpp:123] Creating layer data_fixed
I0525 16:53:59.805155 24657 net.cpp:140] Creating Layer data_fixed
I0525 16:53:59.805157 24657 net.cpp:481] data_fixed <- data
I0525 16:53:59.805161 24657 net.cpp:442] data_fixed -> data (in-place)
I0525 16:53:59.805186 24657 net.cpp:190] Setting up data_fixed
I0525 16:53:59.805192 24657 net.cpp:197] Top shape: 10 3 28 28 (23520)
I0525 16:53:59.805194 24657 net.cpp:205] Memory required for data: 188200
I0525 16:53:59.805199 24657 layer_factory.hpp:123] Creating layer conv1
I0525 16:53:59.805207 24657 net.cpp:140] Creating Layer conv1
I0525 16:53:59.805209 24657 net.cpp:481] conv1 <- data
I0525 16:53:59.805213 24657 net.cpp:455] conv1 -> scale1
I0525 16:53:59.805397 24657 layer_factory.hpp:123] Creating layer conv1
I0525 16:53:59.805691 24657 net.cpp:190] Setting up conv1
I0525 16:53:59.805696 24657 net.cpp:197] Top shape: 10 20 26 26 (135200)
I0525 16:53:59.805698 24657 net.cpp:205] Memory required for data: 729000
I0525 16:53:59.805704 24657 layer_factory.hpp:123] Creating layer relu1
I0525 16:53:59.805708 24657 net.cpp:140] Creating Layer relu1
I0525 16:53:59.805711 24657 net.cpp:481] relu1 <- scale1
I0525 16:53:59.805713 24657 net.cpp:455] relu1 -> relu1
I0525 16:53:59.805727 24657 net.cpp:190] Setting up relu1
I0525 16:53:59.805730 24657 net.cpp:197] Top shape: 10 20 26 26 (135200)
I0525 16:53:59.805732 24657 net.cpp:205] Memory required for data: 1269800
I0525 16:53:59.805733 24657 layer_factory.hpp:123] Creating layer pool1
I0525 16:53:59.805738 24657 net.cpp:140] Creating Layer pool1
I0525 16:53:59.805740 24657 net.cpp:481] pool1 <- relu1
I0525 16:53:59.805743 24657 net.cpp:455] pool1 -> pool1
I0525 16:53:59.805761 24657 net.cpp:190] Setting up pool1
I0525 16:53:59.805765 24657 net.cpp:197] Top shape: 10 20 13 13 (33800)
I0525 16:53:59.805768 24657 net.cpp:205] Memory required for data: 1405000
I0525 16:53:59.805769 24657 layer_factory.hpp:123] Creating layer pool1_fixed
I0525 16:53:59.805773 24657 net.cpp:140] Creating Layer pool1_fixed
I0525 16:53:59.805774 24657 net.cpp:481] pool1_fixed <- pool1
I0525 16:53:59.805778 24657 net.cpp:442] pool1_fixed -> pool1 (in-place)
I0525 16:53:59.805794 24657 net.cpp:190] Setting up pool1_fixed
I0525 16:53:59.805797 24657 net.cpp:197] Top shape: 10 20 13 13 (33800)
I0525 16:53:59.805799 24657 net.cpp:205] Memory required for data: 1540200
I0525 16:53:59.805802 24657 layer_factory.hpp:123] Creating layer conv2
I0525 16:53:59.805809 24657 net.cpp:140] Creating Layer conv2
I0525 16:53:59.805809 24657 net.cpp:481] conv2 <- pool1
I0525 16:53:59.805814 24657 net.cpp:455] conv2 -> scale2
I0525 16:53:59.806558 24657 layer_factory.hpp:123] Creating layer conv2
I0525 16:53:59.807142 24657 net.cpp:190] Setting up conv2
I0525 16:53:59.807149 24657 net.cpp:197] Top shape: 10 50 11 11 (60500)
I0525 16:53:59.807152 24657 net.cpp:205] Memory required for data: 1782200
I0525 16:53:59.807157 24657 layer_factory.hpp:123] Creating layer relu2
I0525 16:53:59.807162 24657 net.cpp:140] Creating Layer relu2
I0525 16:53:59.807163 24657 net.cpp:481] relu2 <- scale2
I0525 16:53:59.807168 24657 net.cpp:455] relu2 -> relu2
I0525 16:53:59.807201 24657 net.cpp:190] Setting up relu2
I0525 16:53:59.807205 24657 net.cpp:197] Top shape: 10 50 11 11 (60500)
I0525 16:53:59.807207 24657 net.cpp:205] Memory required for data: 2024200
I0525 16:53:59.807209 24657 layer_factory.hpp:123] Creating layer pool2
I0525 16:53:59.807214 24657 net.cpp:140] Creating Layer pool2
I0525 16:53:59.807215 24657 net.cpp:481] pool2 <- relu2
I0525 16:53:59.807219 24657 net.cpp:455] pool2 -> pool2
I0525 16:53:59.807253 24657 net.cpp:190] Setting up pool2
I0525 16:53:59.807257 24657 net.cpp:197] Top shape: 10 50 6 6 (18000)
I0525 16:53:59.807260 24657 net.cpp:205] Memory required for data: 2096200
I0525 16:53:59.807261 24657 layer_factory.hpp:123] Creating layer pool2_fixed
I0525 16:53:59.807265 24657 net.cpp:140] Creating Layer pool2_fixed
I0525 16:53:59.807266 24657 net.cpp:481] pool2_fixed <- pool2
I0525 16:53:59.807269 24657 net.cpp:442] pool2_fixed -> pool2 (in-place)
I0525 16:53:59.807313 24657 net.cpp:190] Setting up pool2_fixed
I0525 16:53:59.807318 24657 net.cpp:197] Top shape: 10 50 6 6 (18000)
I0525 16:53:59.807320 24657 net.cpp:205] Memory required for data: 2168200
I0525 16:53:59.807322 24657 layer_factory.hpp:123] Creating layer fc1
I0525 16:53:59.807327 24657 net.cpp:140] Creating Layer fc1
I0525 16:53:59.807329 24657 net.cpp:481] fc1 <- pool2
I0525 16:53:59.807332 24657 net.cpp:455] fc1 -> fc1
I0525 16:53:59.812623 24657 layer_factory.hpp:123] Creating layer fc1
I0525 16:53:59.818085 24657 net.cpp:190] Setting up fc1
I0525 16:53:59.818099 24657 net.cpp:197] Top shape: 10 500 (5000)
I0525 16:53:59.818099 24657 net.cpp:205] Memory required for data: 2188200
I0525 16:53:59.818109 24657 layer_factory.hpp:123] Creating layer relu3
I0525 16:53:59.818114 24657 net.cpp:140] Creating Layer relu3
I0525 16:53:59.818115 24657 net.cpp:481] relu3 <- fc1
I0525 16:53:59.818120 24657 net.cpp:455] relu3 -> relu3
I0525 16:53:59.818135 24657 net.cpp:190] Setting up relu3
I0525 16:53:59.818137 24657 net.cpp:197] Top shape: 10 500 (5000)
I0525 16:53:59.818140 24657 net.cpp:205] Memory required for data: 2208200
I0525 16:53:59.818142 24657 layer_factory.hpp:123] Creating layer relu3_fixed
I0525 16:53:59.818147 24657 net.cpp:140] Creating Layer relu3_fixed
I0525 16:53:59.818150 24657 net.cpp:481] relu3_fixed <- relu3
I0525 16:53:59.818152 24657 net.cpp:442] relu3_fixed -> relu3 (in-place)
I0525 16:53:59.818169 24657 net.cpp:190] Setting up relu3_fixed
I0525 16:53:59.818172 24657 net.cpp:197] Top shape: 10 500 (5000)
I0525 16:53:59.818174 24657 net.cpp:205] Memory required for data: 2228200
I0525 16:53:59.818176 24657 layer_factory.hpp:123] Creating layer fc2
I0525 16:53:59.818181 24657 net.cpp:140] Creating Layer fc2
I0525 16:53:59.818183 24657 net.cpp:481] fc2 <- relu3
I0525 16:53:59.818186 24657 net.cpp:455] fc2 -> fc2
I0525 16:53:59.818254 24657 layer_factory.hpp:123] Creating layer fc2
I0525 16:53:59.818365 24657 net.cpp:190] Setting up fc2
I0525 16:53:59.818369 24657 net.cpp:197] Top shape: 10 10 (100)
I0525 16:53:59.818372 24657 net.cpp:205] Memory required for data: 2228600
I0525 16:53:59.818374 24657 layer_factory.hpp:123] Creating layer fc2_fixed
I0525 16:53:59.818377 24657 net.cpp:140] Creating Layer fc2_fixed
I0525 16:53:59.818379 24657 net.cpp:481] fc2_fixed <- fc2
I0525 16:53:59.818382 24657 net.cpp:442] fc2_fixed -> fc2 (in-place)
I0525 16:53:59.818403 24657 net.cpp:190] Setting up fc2_fixed
I0525 16:53:59.818406 24657 net.cpp:197] Top shape: 10 10 (100)
I0525 16:53:59.818408 24657 net.cpp:205] Memory required for data: 2229000
I0525 16:53:59.818410 24657 layer_factory.hpp:123] Creating layer loss
I0525 16:53:59.818414 24657 net.cpp:140] Creating Layer loss
I0525 16:53:59.818418 24657 net.cpp:481] loss <- fc2
I0525 16:53:59.818419 24657 net.cpp:481] loss <- label
I0525 16:53:59.818423 24657 net.cpp:455] loss -> loss
I0525 16:53:59.818428 24657 layer_factory.hpp:123] Creating layer loss
…
I0525 16:54:00.045338 24657 net.cpp:330] Network initialization done.
I0525 16:54:00.048660 24657 net.cpp:369] The NetState phase (1) differed from the phase (0) specified by a rule in layer data
I0525 16:54:00.048777 24657 net.cpp:98] Initializing net from parameters: 
layer {
  name: "data"
  type: "Data"
  top: "data"
  top: "label"
  include {
    phase: TEST
  }
  transform_param {
    mirror: false
    mean_value: 33.68
    mean_value: 33.68
    mean_value: 33.68
  }
  data_param {
    source: "/home/danieleb/ML/mnist/input/lmdb/valid_lmdb"
    batch_size: 50
    backend: LMDB
  }
}
layer {
  name: "data_fixed"
  type: "FixedNeuron"
  bottom: "data"
  top: "data"
  param {
    lr_mult: 0
    decay_mult: 0
  }
  fixed_param {
    fixed_method: OVER_FLOW
    bit_width: 8
    follow_data_layer: true
  }
}
layer {
  name: "conv1"
  type: "ConvolutionFixed"
  bottom: "data"
  top: "scale1"
  param {
    lr_mult: 1
    decay_mult: 1
  }
  param {
    lr_mult: 1
    decay_mult: 0
  }
  convolution_param {
    num_output: 20
    bias_term: true
    pad: 1
    kernel_size: 5
    stride: 1
    weight_filler {
      type: "xavier"
    }
    bias_filler {
      type: "constant"
      value: 0
    }
  }
  fixed_param {
    fixed_method: DIFF_S
    bit_width: 8
  }
}
layer {
  name: "relu1"
  type: "ReLU"
  bottom: "scale1"
  top: "relu1"
}
layer {
  name: "pool1"
  type: "Pooling"
  bottom: "relu1"
  top: "pool1"
  pooling_param {
    pool: MAX
    kernel_size: 2
    stride: 2
  }
}
layer {
  name: "pool1_fixed"
  type: "FixedNeuron"
  bottom: "pool1"
  top: "pool1"
  param {
    lr_mult: 0
    decay_mult: 0
  }
  fixed_param {
    fixed_method: DIFF_S
    bit_width: 8
  }
}
layer {
  name: "conv2"
  type: "ConvolutionFixed"
  bottom: "pool1"
  top: "scale2"
  param {
    lr_mult: 1
    decay_mult: 1
  }
  param {
    lr_mult: 1
    decay_mult: 0
  }
  convolution_param {
    num_output: 50
    bias_term: true
    pad: 1
    kernel_size: 5
    stride: 1
    weight_filler {
      type: "xavier"
    }
    bias_filler {
      type: "constant"
      value: 0
    }
  }
  fixed_param {
    fixed_method: DIFF_S
    bit_width: 8
  }
}
layer {
  name: "relu2"
  type: "ReLU"
  bottom: "scale2"
  top: "relu2"
}
layer {
  name: "pool2"
  type: "Pooling"
  bottom: "relu2"
  top: "pool2"
  pooling_param {
    pool: MAX
    kernel_size: 2
    stride: 2
  }
}
layer {
  name: "pool2_fixed"
  type: "FixedNeuron"
  bottom: "pool2"
  top: "pool2"
  param {
    lr_mult: 0
    decay_mult: 0
  }
  fixed_param {
    fixed_method: DIFF_S
    bit_width: 8
  }
}
layer {
  name: "fc1"
  type: "InnerProductFixed"
  bottom: "pool2"
  top: "fc1"
  param {
    lr_mult: 1
    decay_mult: 1
  }
  param {
    lr_mult: 2
    decay_mult: 0
  }
  inner_product_param {
    num_output: 500
    weight_filler {
      type: "xavier"
    }
    bias_filler {
      type: "constant"
      value: 1
    }
  }
  fixed_param {
    fixed_method: DIFF_S
    bit_width: 8
  }
}
layer {
  name: "relu3"
  type: "ReLU"
  bottom: "fc1"
  top: "relu3"
}
layer {
  name: "relu3_fixed"
  type: "FixedNeuron"
  bottom: "relu3"
  top: "relu3"
  param {
    lr_mult: 0
    decay_mult: 0
  }
  fixed_param {
    fixed_method: DIFF_S
    bit_width: 8
  }
}
layer {
  name: "fc2"
  type: "InnerProductFixed"
  bottom: "relu3"
  top: "fc2"
  param {
    lr_mult: 1
    decay_mult: 1
  }
  param {
    lr_mult: 2
    decay_mult: 0
  }
  inner_product_param {
    num_output: 10
    weight_filler {
      type: "xavier"
    }
    bias_filler {
      type: "constant"
      value: 1
    }
  }
  fixed_param {
    fixed_method: DIFF_S
    bit_width: 8
  }
}
layer {
  name: "fc2_fixed"
  type: "FixedNeuron"
  bottom: "fc2"
  top: "fc2"
  param {
    lr_mult: 0
    decay_mult: 0
  }
  fixed_param {
    fixed_method: DIFF_S
    bit_width: 8
  }
}
layer {
  name: "loss"
  type: "SoftmaxWithLoss"
  bottom: "fc2"
  bottom: "label"
  top: "loss"
}
layer {
  name: "accuracy"
  type: "Accuracy"
  bottom: "fc2"
  bottom: "label"
  top: "accuracy"
  include {
    phase: TEST
  }
}
layer {
  name: "accuracy-top1"
  type: "Accuracy"
  bottom: "fc2"
  bottom: "label"
  top: "top-1"
  include {
    phase: TEST
  }
}
layer {
  name: "accuracy-top5"
  type: "Accuracy"
  bottom: "fc2"
  bottom: "label"
  top: "top-5"
  include {
    phase: TEST
  }
  accuracy_param {
    top_k: 5
  }
}
I0525 16:54:00.048857 24657 layer_factory.hpp:123] Creating layer data
I0525 16:54:00.048894 24657 internal_thread.cpp:73] Starting internal thread(s) on GPU 0
I0525 16:54:00.049743 24657 net.cpp:140] Creating Layer data
I0525 16:54:00.049751 24657 net.cpp:455] data -> data
I0525 16:54:00.049757 24657 net.cpp:455] data -> label
I0525 16:54:00.050295 24694 db_lmdb.cpp:81] Opened lmdb /home/danieleb/ML/mnist/input/lmdb/valid_lmdb
I0525 16:54:00.050334 24694 data_reader.cpp:166] TEST: reading data using 1 channel(s)
I0525 16:54:00.050397 24657 data_layer.cpp:124] ReshapePrefetch 50, 3, 28, 28
I0525 16:54:00.050464 24657 data_layer.cpp:129] output data size: 50,3,28,28
I0525 16:54:00.052485 24657 internal_thread.cpp:73] Starting internal thread(s) on GPU 0
I0525 16:54:00.052536 24657 net.cpp:190] Setting up data
I0525 16:54:00.052543 24657 net.cpp:197] Top shape: 50 3 28 28 (117600)
I0525 16:54:00.052546 24657 net.cpp:197] Top shape: 50 (50)
I0525 16:54:00.052548 24657 net.cpp:205] Memory required for data: 470600
I0525 16:54:00.052551 24657 layer_factory.hpp:123] Creating layer label_data_1_split
I0525 16:54:00.052557 24657 net.cpp:140] Creating Layer label_data_1_split
I0525 16:54:00.052561 24657 net.cpp:481] label_data_1_split <- label
I0525 16:54:00.052565 24657 net.cpp:455] label_data_1_split -> label_data_1_split_0
I0525 16:54:00.052573 24657 net.cpp:455] label_data_1_split -> label_data_1_split_1
I0525 16:54:00.052578 24657 net.cpp:455] label_data_1_split -> label_data_1_split_2
I0525 16:54:00.052582 24657 net.cpp:455] label_data_1_split -> label_data_1_split_3
I0525 16:54:00.052671 24657 net.cpp:190] Setting up label_data_1_split
I0525 16:54:00.052677 24657 net.cpp:197] Top shape: 50 (50)
I0525 16:54:00.052680 24657 net.cpp:197] Top shape: 50 (50)
I0525 16:54:00.052682 24657 net.cpp:197] Top shape: 50 (50)
I0525 16:54:00.052685 24657 net.cpp:197] Top shape: 50 (50)
I0525 16:54:00.052687 24657 net.cpp:205] Memory required for data: 471400
I0525 16:54:00.052690 24657 layer_factory.hpp:123] Creating layer data_fixed
I0525 16:54:00.052693 24657 net.cpp:140] Creating Layer data_fixed
I0525 16:54:00.052696 24657 net.cpp:481] data_fixed <- data
I0525 16:54:00.052700 24657 net.cpp:442] data_fixed -> data (in-place)
I0525 16:54:00.052744 24657 net.cpp:190] Setting up data_fixed
I0525 16:54:00.052749 24657 net.cpp:197] Top shape: 50 3 28 28 (117600)
I0525 16:54:00.052752 24657 net.cpp:205] Memory required for data: 941800
I0525 16:54:00.052757 24657 layer_factory.hpp:123] Creating layer conv1
I0525 16:54:00.052764 24657 net.cpp:140] Creating Layer conv1
I0525 16:54:00.052767 24657 net.cpp:481] conv1 <- data
I0525 16:54:00.052772 24657 net.cpp:455] conv1 -> scale1
I0525 16:54:00.052934 24657 layer_factory.hpp:123] Creating layer conv1
I0525 16:54:00.053154 24657 net.cpp:190] Setting up conv1
I0525 16:54:00.053159 24657 net.cpp:197] Top shape: 50 20 26 26 (676000)
I0525 16:54:00.053162 24657 net.cpp:205] Memory required for data: 3645800
I0525 16:54:00.053169 24657 layer_factory.hpp:123] Creating layer relu1
I0525 16:54:00.053172 24657 net.cpp:140] Creating Layer relu1
I0525 16:54:00.053175 24657 net.cpp:481] relu1 <- scale1
I0525 16:54:00.053179 24657 net.cpp:455] relu1 -> relu1
I0525 16:54:00.053202 24657 net.cpp:190] Setting up relu1
I0525 16:54:00.053206 24657 net.cpp:197] Top shape: 50 20 26 26 (676000)
I0525 16:54:00.053208 24657 net.cpp:205] Memory required for data: 6349800
I0525 16:54:00.053210 24657 layer_factory.hpp:123] Creating layer pool1
I0525 16:54:00.053215 24657 net.cpp:140] Creating Layer pool1
I0525 16:54:00.053216 24657 net.cpp:481] pool1 <- relu1
I0525 16:54:00.053220 24657 net.cpp:455] pool1 -> pool1
I0525 16:54:00.053241 24657 net.cpp:190] Setting up pool1
I0525 16:54:00.053244 24657 net.cpp:197] Top shape: 50 20 13 13 (169000)
I0525 16:54:00.053247 24657 net.cpp:205] Memory required for data: 7025800
I0525 16:54:00.053249 24657 layer_factory.hpp:123] Creating layer pool1_fixed
I0525 16:54:00.053252 24657 net.cpp:140] Creating Layer pool1_fixed
I0525 16:54:00.053253 24657 net.cpp:481] pool1_fixed <- pool1
I0525 16:54:00.053257 24657 net.cpp:442] pool1_fixed -> pool1 (in-place)
I0525 16:54:00.053274 24657 net.cpp:190] Setting up pool1_fixed
I0525 16:54:00.053277 24657 net.cpp:197] Top shape: 50 20 13 13 (169000)
I0525 16:54:00.053278 24657 net.cpp:205] Memory required for data: 7701800
I0525 16:54:00.053282 24657 layer_factory.hpp:123] Creating layer conv2
I0525 16:54:00.053287 24657 net.cpp:140] Creating Layer conv2
I0525 16:54:00.053288 24657 net.cpp:481] conv2 <- pool1
I0525 16:54:00.053292 24657 net.cpp:455] conv2 -> scale2
I0525 16:54:00.053493 24657 layer_factory.hpp:123] Creating layer conv2
I0525 16:54:00.053789 24657 net.cpp:190] Setting up conv2
I0525 16:54:00.053795 24657 net.cpp:197] Top shape: 50 50 11 11 (302500)
I0525 16:54:00.053797 24657 net.cpp:205] Memory required for data: 8911800
I0525 16:54:00.053802 24657 layer_factory.hpp:123] Creating layer relu2
I0525 16:54:00.053805 24657 net.cpp:140] Creating Layer relu2
I0525 16:54:00.053808 24657 net.cpp:481] relu2 <- scale2
I0525 16:54:00.053812 24657 net.cpp:455] relu2 -> relu2
I0525 16:54:00.053823 24657 net.cpp:190] Setting up relu2
I0525 16:54:00.053828 24657 net.cpp:197] Top shape: 50 50 11 11 (302500)
I0525 16:54:00.053829 24657 net.cpp:205] Memory required for data: 10121800
I0525 16:54:00.053831 24657 layer_factory.hpp:123] Creating layer pool2
I0525 16:54:00.053834 24657 net.cpp:140] Creating Layer pool2
I0525 16:54:00.053836 24657 net.cpp:481] pool2 <- relu2
I0525 16:54:00.053839 24657 net.cpp:455] pool2 -> pool2
I0525 16:54:00.053864 24657 net.cpp:190] Setting up pool2
I0525 16:54:00.053867 24657 net.cpp:197] Top shape: 50 50 6 6 (90000)
I0525 16:54:00.053869 24657 net.cpp:205] Memory required for data: 10481800
I0525 16:54:00.053871 24657 layer_factory.hpp:123] Creating layer pool2_fixed
I0525 16:54:00.053874 24657 net.cpp:140] Creating Layer pool2_fixed
I0525 16:54:00.053875 24657 net.cpp:481] pool2_fixed <- pool2
I0525 16:54:00.053879 24657 net.cpp:442] pool2_fixed -> pool2 (in-place)
I0525 16:54:00.053910 24657 net.cpp:190] Setting up pool2_fixed
I0525 16:54:00.053915 24657 net.cpp:197] Top shape: 50 50 6 6 (90000)
I0525 16:54:00.053916 24657 net.cpp:205] Memory required for data: 10841800
I0525 16:54:00.053920 24657 layer_factory.hpp:123] Creating layer fc1
I0525 16:54:00.053923 24657 net.cpp:140] Creating Layer fc1
I0525 16:54:00.053925 24657 net.cpp:481] fc1 <- pool2
I0525 16:54:00.053928 24657 net.cpp:455] fc1 -> fc1
I0525 16:54:00.059972 24657 layer_factory.hpp:123] Creating layer fc1
I0525 16:54:00.066085 24657 net.cpp:190] Setting up fc1
I0525 16:54:00.066098 24657 net.cpp:197] Top shape: 50 500 (25000)
I0525 16:54:00.066102 24657 net.cpp:205] Memory required for data: 10941800
I0525 16:54:00.066110 24657 layer_factory.hpp:123] Creating layer relu3
I0525 16:54:00.066117 24657 net.cpp:140] Creating Layer relu3
I0525 16:54:00.066119 24657 net.cpp:481] relu3 <- fc1
I0525 16:54:00.066124 24657 net.cpp:455] relu3 -> relu3
I0525 16:54:00.066141 24657 net.cpp:190] Setting up relu3
I0525 16:54:00.066145 24657 net.cpp:197] Top shape: 50 500 (25000)
I0525 16:54:00.066148 24657 net.cpp:205] Memory required for data: 11041800
I0525 16:54:00.066149 24657 layer_factory.hpp:123] Creating layer relu3_fixed
I0525 16:54:00.066154 24657 net.cpp:140] Creating Layer relu3_fixed
I0525 16:54:00.066156 24657 net.cpp:481] relu3_fixed <- relu3
I0525 16:54:00.066160 24657 net.cpp:442] relu3_fixed -> relu3 (in-place)
I0525 16:54:00.066182 24657 net.cpp:190] Setting up relu3_fixed
I0525 16:54:00.066185 24657 net.cpp:197] Top shape: 50 500 (25000)
I0525 16:54:00.066188 24657 net.cpp:205] Memory required for data: 11141800
I0525 16:54:00.066191 24657 layer_factory.hpp:123] Creating layer fc2
I0525 16:54:00.066196 24657 net.cpp:140] Creating Layer fc2
I0525 16:54:00.066198 24657 net.cpp:481] fc2 <- relu3
I0525 16:54:00.066205 24657 net.cpp:455] fc2 -> fc2
I0525 16:54:00.066288 24657 layer_factory.hpp:123] Creating layer fc2
I0525 16:54:00.066408 24657 net.cpp:190] Setting up fc2
I0525 16:54:00.066413 24657 net.cpp:197] Top shape: 50 10 (500)
I0525 16:54:00.066416 24657 net.cpp:205] Memory required for data: 11143800
I0525 16:54:00.066421 24657 layer_factory.hpp:123] Creating layer fc2_fixed
I0525 16:54:00.066424 24657 net.cpp:140] Creating Layer fc2_fixed
I0525 16:54:00.066426 24657 net.cpp:481] fc2_fixed <- fc2
I0525 16:54:00.066431 24657 net.cpp:442] fc2_fixed -> fc2 (in-place)
I0525 16:54:00.066452 24657 net.cpp:190] Setting up fc2_fixed
I0525 16:54:00.066457 24657 net.cpp:197] Top shape: 50 10 (500)
I0525 16:54:00.066457 24657 net.cpp:205] Memory required for data: 11145800
I0525 16:54:00.066462 24657 layer_factory.hpp:123] Creating layer fc2_fc2_fixed_0_split
I0525 16:54:00.066468 24657 net.cpp:140] Creating Layer fc2_fc2_fixed_0_split
I0525 16:54:00.066469 24657 net.cpp:481] fc2_fc2_fixed_0_split <- fc2
I0525 16:54:00.066473 24657 net.cpp:455] fc2_fc2_fixed_0_split -> fc2_fc2_fixed_0_split_0
I0525 16:54:00.066479 24657 net.cpp:455] fc2_fc2_fixed_0_split -> fc2_fc2_fixed_0_split_1
I0525 16:54:00.066485 24657 net.cpp:455] fc2_fc2_fixed_0_split -> fc2_fc2_fixed_0_split_2
I0525 16:54:00.066490 24657 net.cpp:455] fc2_fc2_fixed_0_split -> fc2_fc2_fixed_0_split_3
I0525 16:54:00.066529 24657 net.cpp:190] Setting up fc2_fc2_fixed_0_split
I0525 16:54:00.066534 24657 net.cpp:197] Top shape: 50 10 (500)
I0525 16:54:00.066537 24657 net.cpp:197] Top shape: 50 10 (500)
I0525 16:54:00.066540 24657 net.cpp:197] Top shape: 50 10 (500)
I0525 16:54:00.066542 24657 net.cpp:197] Top shape: 50 10 (500)
I0525 16:54:00.066545 24657 net.cpp:205] Memory required for data: 11153800
I0525 16:54:00.066547 24657 layer_factory.hpp:123] Creating layer loss
I0525 16:54:00.066551 24657 net.cpp:140] Creating Layer loss
I0525 16:54:00.066553 24657 net.cpp:481] loss <- fc2_fc2_fixed_0_split_0
I0525 16:54:00.066557 24657 net.cpp:481] loss <- label_data_1_split_0
I0525 16:54:00.066561 24657 net.cpp:455] loss -> loss
…
