…
I0424 12:55:43.603615 32161 net.cpp:294] The NetState phase (0) differed from the phase (1) specified by a rule in layer accuracy
I0424 12:55:43.603695 32161 net.cpp:51] Initializing net from parameters: 
name: "LeNet on MNIST m3 NO-inPlace"
state {
  phase: TRAIN
  level: 0
  stage: ""
}
layer {
  name: "data"
  type: "Data"
  top: "data"
  top: "label"
  include {
    phase: TRAIN
  }
  transform_param {
    mirror: true
    mean_value: 33.68
    mean_value: 33.68
    mean_value: 33.68
  }
  data_param {
    source: "input/lmdb/train_lmdb"
    batch_size: 128
    backend: LMDB
  }
}
layer {
  name: "conv1"
  type: "Convolution"
  bottom: "data"
  top: "conv1"
  param {
    lr_mult: 1
    decay_mult: 1
  }
  param {
    lr_mult: 2
    decay_mult: 0
  }
  convolution_param {
    num_output: 20
    pad: 1
    kernel_size: 5
    stride: 1
    weight_filler {
      type: "xavier"
    }
    bias_filler {
      type: "constant"
      value: 0
    }
  }
}
layer {
  name: "bn1"
  type: "BatchNorm"
  bottom: "conv1"
  top: "bn1"
  param {
    lr_mult: 0
    decay_mult: 0
  }
  param {
    lr_mult: 0
    decay_mult: 0
  }
  param {
    lr_mult: 0
    decay_mult: 0
  }
  batch_norm_param {
    use_global_stats: false
  }
}
layer {
  name: "scale1"
  type: "Scale"
  bottom: "bn1"
  top: "scale1"
  scale_param {
    bias_term: true
  }
}
layer {
  name: "relu1"
  type: "ReLU"
  bottom: "scale1"
  top: "relu1"
}
layer {
  name: "pool1"
  type: "Pooling"
  bottom: "relu1"
  top: "pool1"
  pooling_param {
    pool: MAX
    kernel_size: 2
    stride: 2
  }
}
layer {
  name: "conv2"
  type: "Convolution"
  bottom: "pool1"
  top: "conv2"
  param {
    lr_mult: 1
    decay_mult: 1
  }
  param {
    lr_mult: 2
    decay_mult: 0
  }
  convolution_param {
    num_output: 50
    pad: 1
    kernel_size: 5
    stride: 1
    weight_filler {
      type: "xavier"
    }
    bias_filler {
      type: "constant"
      value: 0
    }
  }
}
layer {
  name: "bn2"
  type: "BatchNorm"
  bottom: "conv2"
  top: "bn2"
  param {
    lr_mult: 0
    decay_mult: 0
  }
  param {
    lr_mult: 0
    decay_mult: 0
  }
  param {
    lr_mult: 0
    decay_mult: 0
  }
  batch_norm_param {
    use_global_stats: false
  }
}
layer {
  name: "scale2"
  type: "Scale"
  bottom: "bn2"
  top: "scale2"
  scale_param {
    bias_term: true
  }
}
layer {
  name: "relu2"
  type: "ReLU"
  bottom: "scale2"
  top: "relu2"
}
layer {
  name: "pool2"
  type: "Pooling"
  bottom: "relu2"
  top: "pool2"
  pooling_param {
    pool: MAX
    kernel_size: 2
    stride: 2
  }
}
layer {
  name: "fc1"
  type: "InnerProduct"
  bottom: "pool2"
  top: "fc1"
  param {
    lr_mult: 1
    decay_mult: 1
  }
  param {
    lr_mult: 2
    decay_mult: 0
  }
  inner_product_param {
    num_output: 500
    weight_filler {
      type: "xavier"
    }
    bias_filler {
      type: "constant"
      value: 1
    }
  }
}
layer {
  name: "relu3"
  type: "ReLU"
  bottom: "fc1"
  top: "relu3"
}
layer {
  name: "fc2"
  type: "InnerProduct"
  bottom: "relu3"
  top: "fc2"
  param {
    lr_mult: 1
    decay_mult: 1
  }
  param {
    lr_mult: 2
    decay_mult: 0
  }
  inner_product_param {
    num_output: 10
    weight_filler {
      type: "xavier"
    }
    bias_filler {
      type: "constant"
      value: 1
    }
  }
}
layer {
  name: "loss"
  type: "SoftmaxWithLoss"
  bottom: "fc2"
  bottom: "label"
  top: "loss"
}
I0424 12:55:43.603760 32161 layer_factory.hpp:77] Creating layer data
I0424 12:55:43.603835 32161 db_lmdb.cpp:35] Opened lmdb input/lmdb/train_lmdb
I0424 12:55:43.603855 32161 net.cpp:84] Creating Layer data
I0424 12:55:43.603860 32161 net.cpp:380] data -> data
I0424 12:55:43.603878 32161 net.cpp:380] data -> label
I0424 12:55:43.604482 32161 data_layer.cpp:45] output data size: 128,3,28,28
I0424 12:55:43.606945 32161 net.cpp:122] Setting up data
I0424 12:55:43.606961 32161 net.cpp:129] Top shape: 128 3 28 28 (301056)
I0424 12:55:43.606964 32161 net.cpp:129] Top shape: 128 (128)
I0424 12:55:43.606966 32161 net.cpp:137] Memory required for data: 1204736
I0424 12:55:43.606972 32161 layer_factory.hpp:77] Creating layer conv1
I0424 12:55:43.606988 32161 net.cpp:84] Creating Layer conv1
I0424 12:55:43.606992 32161 net.cpp:406] conv1 <- data
I0424 12:55:43.607014 32161 net.cpp:380] conv1 -> conv1
I0424 12:55:44.263885 32161 net.cpp:122] Setting up conv1
I0424 12:55:44.263911 32161 net.cpp:129] Top shape: 128 20 26 26 (1730560)
I0424 12:55:44.263913 32161 net.cpp:137] Memory required for data: 8126976
I0424 12:55:44.263927 32161 layer_factory.hpp:77] Creating layer bn1
I0424 12:55:44.263937 32161 net.cpp:84] Creating Layer bn1
I0424 12:55:44.263939 32161 net.cpp:406] bn1 <- conv1
I0424 12:55:44.263945 32161 net.cpp:380] bn1 -> bn1
I0424 12:55:44.264080 32161 net.cpp:122] Setting up bn1
I0424 12:55:44.264084 32161 net.cpp:129] Top shape: 128 20 26 26 (1730560)
I0424 12:55:44.264086 32161 net.cpp:137] Memory required for data: 15049216
I0424 12:55:44.264093 32161 layer_factory.hpp:77] Creating layer scale1
I0424 12:55:44.264097 32161 net.cpp:84] Creating Layer scale1
I0424 12:55:44.264101 32161 net.cpp:406] scale1 <- bn1
I0424 12:55:44.264103 32161 net.cpp:380] scale1 -> scale1
I0424 12:55:44.264128 32161 layer_factory.hpp:77] Creating layer scale1
I0424 12:55:44.264194 32161 net.cpp:122] Setting up scale1
I0424 12:55:44.264199 32161 net.cpp:129] Top shape: 128 20 26 26 (1730560)
I0424 12:55:44.264199 32161 net.cpp:137] Memory required for data: 21971456
I0424 12:55:44.264204 32161 layer_factory.hpp:77] Creating layer relu1
I0424 12:55:44.264209 32161 net.cpp:84] Creating Layer relu1
I0424 12:55:44.264210 32161 net.cpp:406] relu1 <- scale1
I0424 12:55:44.264214 32161 net.cpp:380] relu1 -> relu1
I0424 12:55:44.264297 32161 net.cpp:122] Setting up relu1
I0424 12:55:44.264302 32161 net.cpp:129] Top shape: 128 20 26 26 (1730560)
I0424 12:55:44.264304 32161 net.cpp:137] Memory required for data: 28893696
I0424 12:55:44.264307 32161 layer_factory.hpp:77] Creating layer pool1
I0424 12:55:44.264310 32161 net.cpp:84] Creating Layer pool1
I0424 12:55:44.264312 32161 net.cpp:406] pool1 <- relu1
I0424 12:55:44.264315 32161 net.cpp:380] pool1 -> pool1
I0424 12:55:44.264341 32161 net.cpp:122] Setting up pool1
I0424 12:55:44.264346 32161 net.cpp:129] Top shape: 128 20 13 13 (432640)
I0424 12:55:44.264348 32161 net.cpp:137] Memory required for data: 30624256
I0424 12:55:44.264349 32161 layer_factory.hpp:77] Creating layer conv2
I0424 12:55:44.264356 32161 net.cpp:84] Creating Layer conv2
I0424 12:55:44.264359 32161 net.cpp:406] conv2 <- pool1
I0424 12:55:44.264362 32161 net.cpp:380] conv2 -> conv2
I0424 12:55:44.264971 32161 net.cpp:122] Setting up conv2
I0424 12:55:44.264981 32161 net.cpp:129] Top shape: 128 50 11 11 (774400)
I0424 12:55:44.264984 32161 net.cpp:137] Memory required for data: 33721856
I0424 12:55:44.264991 32161 layer_factory.hpp:77] Creating layer bn2
I0424 12:55:44.264997 32161 net.cpp:84] Creating Layer bn2
I0424 12:55:44.264999 32161 net.cpp:406] bn2 <- conv2
I0424 12:55:44.265003 32161 net.cpp:380] bn2 -> bn2
I0424 12:55:44.265115 32161 net.cpp:122] Setting up bn2
I0424 12:55:44.265120 32161 net.cpp:129] Top shape: 128 50 11 11 (774400)
I0424 12:55:44.265138 32161 net.cpp:137] Memory required for data: 36819456
I0424 12:55:44.265143 32161 layer_factory.hpp:77] Creating layer scale2
I0424 12:55:44.265147 32161 net.cpp:84] Creating Layer scale2
I0424 12:55:44.265151 32161 net.cpp:406] scale2 <- bn2
I0424 12:55:44.265154 32161 net.cpp:380] scale2 -> scale2
I0424 12:55:44.265172 32161 layer_factory.hpp:77] Creating layer scale2
I0424 12:55:44.265231 32161 net.cpp:122] Setting up scale2
I0424 12:55:44.265235 32161 net.cpp:129] Top shape: 128 50 11 11 (774400)
I0424 12:55:44.265239 32161 net.cpp:137] Memory required for data: 39917056
I0424 12:55:44.265242 32161 layer_factory.hpp:77] Creating layer relu2
I0424 12:55:44.265245 32161 net.cpp:84] Creating Layer relu2
I0424 12:55:44.265247 32161 net.cpp:406] relu2 <- scale2
I0424 12:55:44.265250 32161 net.cpp:380] relu2 -> relu2
I0424 12:55:44.265426 32161 net.cpp:122] Setting up relu2
I0424 12:55:44.265434 32161 net.cpp:129] Top shape: 128 50 11 11 (774400)
I0424 12:55:44.265435 32161 net.cpp:137] Memory required for data: 43014656
I0424 12:55:44.265437 32161 layer_factory.hpp:77] Creating layer pool2
I0424 12:55:44.265441 32161 net.cpp:84] Creating Layer pool2
I0424 12:55:44.265444 32161 net.cpp:406] pool2 <- relu2
I0424 12:55:44.265447 32161 net.cpp:380] pool2 -> pool2
I0424 12:55:44.265466 32161 net.cpp:122] Setting up pool2
I0424 12:55:44.265471 32161 net.cpp:129] Top shape: 128 50 6 6 (230400)
I0424 12:55:44.265473 32161 net.cpp:137] Memory required for data: 43936256
I0424 12:55:44.265475 32161 layer_factory.hpp:77] Creating layer fc1
I0424 12:55:44.265480 32161 net.cpp:84] Creating Layer fc1
I0424 12:55:44.265482 32161 net.cpp:406] fc1 <- pool2
I0424 12:55:44.265486 32161 net.cpp:380] fc1 -> fc1
I0424 12:55:44.269608 32161 net.cpp:122] Setting up fc1
I0424 12:55:44.269620 32161 net.cpp:129] Top shape: 128 500 (64000)
I0424 12:55:44.269623 32161 net.cpp:137] Memory required for data: 44192256
I0424 12:55:44.269629 32161 layer_factory.hpp:77] Creating layer relu3
I0424 12:55:44.269632 32161 net.cpp:84] Creating Layer relu3
I0424 12:55:44.269635 32161 net.cpp:406] relu3 <- fc1
I0424 12:55:44.269639 32161 net.cpp:380] relu3 -> relu3
I0424 12:55:44.269722 32161 net.cpp:122] Setting up relu3
I0424 12:55:44.269727 32161 net.cpp:129] Top shape: 128 500 (64000)
I0424 12:55:44.269729 32161 net.cpp:137] Memory required for data: 44448256
I0424 12:55:44.269731 32161 layer_factory.hpp:77] Creating layer fc2
I0424 12:55:44.269735 32161 net.cpp:84] Creating Layer fc2
I0424 12:55:44.269738 32161 net.cpp:406] fc2 <- relu3
I0424 12:55:44.269742 32161 net.cpp:380] fc2 -> fc2
I0424 12:55:44.269816 32161 net.cpp:122] Setting up fc2
I0424 12:55:44.269821 32161 net.cpp:129] Top shape: 128 10 (1280)
I0424 12:55:44.269822 32161 net.cpp:137] Memory required for data: 44453376
I0424 12:55:44.269829 32161 layer_factory.hpp:77] Creating layer loss
I0424 12:55:44.269834 32161 net.cpp:84] Creating Layer loss
I0424 12:55:44.269835 32161 net.cpp:406] loss <- fc2
I0424 12:55:44.269837 32161 net.cpp:406] loss <- label
I0424 12:55:44.269842 32161 net.cpp:380] loss -> loss
I0424 12:55:44.269850 32161 layer_factory.hpp:77] Creating layer loss
…
I0424 12:55:44.270368 32161 net.cpp:294] The NetState phase (1) differed from the phase (0) specified by a rule in layer data
I0424 12:55:44.270452 32161 net.cpp:51] Initializing net from parameters: 
name: "LeNet on MNIST m3 NO-inPlace"
state {
  phase: TEST
}
layer {
  name: "data"
  type: "Data"
  top: "data"
  top: "label"
  include {
    phase: TEST
  }
  transform_param {
    mirror: false
    mean_value: 33.68
    mean_value: 33.68
    mean_value: 33.68
  }
  data_param {
    source: "input/lmdb/valid_lmdb"
    batch_size: 50
    backend: LMDB
  }
}
layer {
  name: "conv1"
  type: "Convolution"
  bottom: "data"
  top: "conv1"
  param {
    lr_mult: 1
    decay_mult: 1
  }
  param {
    lr_mult: 2
    decay_mult: 0
  }
  convolution_param {
    num_output: 20
    pad: 1
    kernel_size: 5
    stride: 1
    weight_filler {
      type: "xavier"
    }
    bias_filler {
      type: "constant"
      value: 0
    }
  }
}
layer {
  name: "bn1"
  type: "BatchNorm"
  bottom: "conv1"
  top: "bn1"
  param {
    lr_mult: 0
    decay_mult: 0
  }
  param {
    lr_mult: 0
    decay_mult: 0
  }
  param {
    lr_mult: 0
    decay_mult: 0
  }
  batch_norm_param {
    use_global_stats: false
  }
}
layer {
  name: "scale1"
  type: "Scale"
  bottom: "bn1"
  top: "scale1"
  scale_param {
    bias_term: true
  }
}
layer {
  name: "relu1"
  type: "ReLU"
  bottom: "scale1"
  top: "relu1"
}
layer {
  name: "pool1"
  type: "Pooling"
  bottom: "relu1"
  top: "pool1"
  pooling_param {
    pool: MAX
    kernel_size: 2
    stride: 2
  }
}
layer {
  name: "conv2"
  type: "Convolution"
  bottom: "pool1"
  top: "conv2"
  param {
    lr_mult: 1
    decay_mult: 1
  }
  param {
    lr_mult: 2
    decay_mult: 0
  }
  convolution_param {
    num_output: 50
    pad: 1
    kernel_size: 5
    stride: 1
    weight_filler {
      type: "xavier"
    }
    bias_filler {
      type: "constant"
      value: 0
    }
  }
}
layer {
  name: "bn2"
  type: "BatchNorm"
  bottom: "conv2"
  top: "bn2"
  param {
    lr_mult: 0
    decay_mult: 0
  }
  param {
    lr_mult: 0
    decay_mult: 0
  }
  param {
    lr_mult: 0
    decay_mult: 0
  }
  batch_norm_param {
    use_global_stats: false
  }
}
layer {
  name: "scale2"
  type: "Scale"
  bottom: "bn2"
  top: "scale2"
  scale_param {
    bias_term: true
  }
}
layer {
  name: "relu2"
  type: "ReLU"
  bottom: "scale2"
  top: "relu2"
}
layer {
  name: "pool2"
  type: "Pooling"
  bottom: "relu2"
  top: "pool2"
  pooling_param {
    pool: MAX
    kernel_size: 2
    stride: 2
  }
}
layer {
  name: "fc1"
  type: "InnerProduct"
  bottom: "pool2"
  top: "fc1"
  param {
    lr_mult: 1
    decay_mult: 1
  }
  param {
    lr_mult: 2
    decay_mult: 0
  }
  inner_product_param {
    num_output: 500
    weight_filler {
      type: "xavier"
    }
    bias_filler {
      type: "constant"
      value: 1
    }
  }
}
layer {
  name: "relu3"
  type: "ReLU"
  bottom: "fc1"
  top: "relu3"
}
layer {
  name: "fc2"
  type: "InnerProduct"
  bottom: "relu3"
  top: "fc2"
  param {
    lr_mult: 1
    decay_mult: 1
  }
  param {
    lr_mult: 2
    decay_mult: 0
  }
  inner_product_param {
    num_output: 10
    weight_filler {
      type: "xavier"
    }
    bias_filler {
      type: "constant"
      value: 1
    }
  }
}
layer {
  name: "loss"
  type: "SoftmaxWithLoss"
  bottom: "fc2"
  bottom: "label"
  top: "loss"
}
layer {
  name: "accuracy"
  type: "Accuracy"
  bottom: "fc2"
  bottom: "label"
  top: "accuracy"
  include {
    phase: TEST
  }
}
I0424 12:55:44.270510 32161 layer_factory.hpp:77] Creating layer data
I0424 12:55:44.270576 32161 db_lmdb.cpp:35] Opened lmdb input/lmdb/valid_lmdb
I0424 12:55:44.270586 32161 net.cpp:84] Creating Layer data
I0424 12:55:44.270591 32161 net.cpp:380] data -> data
I0424 12:55:44.270596 32161 net.cpp:380] data -> label
I0424 12:55:44.270668 32161 data_layer.cpp:45] output data size: 50,3,28,28
I0424 12:55:44.271281 32161 net.cpp:122] Setting up data
I0424 12:55:44.271291 32161 net.cpp:129] Top shape: 50 3 28 28 (117600)
I0424 12:55:44.271296 32161 net.cpp:129] Top shape: 50 (50)
I0424 12:55:44.271297 32161 net.cpp:137] Memory required for data: 470600
I0424 12:55:44.271301 32161 layer_factory.hpp:77] Creating layer label_data_1_split
I0424 12:55:44.271306 32161 net.cpp:84] Creating Layer label_data_1_split
I0424 12:55:44.271308 32161 net.cpp:406] label_data_1_split <- label
I0424 12:55:44.271314 32161 net.cpp:380] label_data_1_split -> label_data_1_split_0
I0424 12:55:44.271319 32161 net.cpp:380] label_data_1_split -> label_data_1_split_1
I0424 12:55:44.271347 32161 net.cpp:122] Setting up label_data_1_split
I0424 12:55:44.271351 32161 net.cpp:129] Top shape: 50 (50)
I0424 12:55:44.271355 32161 net.cpp:129] Top shape: 50 (50)
I0424 12:55:44.271358 32161 net.cpp:137] Memory required for data: 471000
I0424 12:55:44.271359 32161 layer_factory.hpp:77] Creating layer conv1
I0424 12:55:44.271368 32161 net.cpp:84] Creating Layer conv1
I0424 12:55:44.271371 32161 net.cpp:406] conv1 <- data
I0424 12:55:44.271375 32161 net.cpp:380] conv1 -> conv1
I0424 12:55:44.273322 32161 net.cpp:122] Setting up conv1
I0424 12:55:44.273334 32161 net.cpp:129] Top shape: 50 20 26 26 (676000)
I0424 12:55:44.273337 32161 net.cpp:137] Memory required for data: 3175000
I0424 12:55:44.273361 32161 layer_factory.hpp:77] Creating layer bn1
I0424 12:55:44.273367 32161 net.cpp:84] Creating Layer bn1
I0424 12:55:44.273370 32161 net.cpp:406] bn1 <- conv1
I0424 12:55:44.273375 32161 net.cpp:380] bn1 -> bn1
I0424 12:55:44.273531 32161 net.cpp:122] Setting up bn1
I0424 12:55:44.273536 32161 net.cpp:129] Top shape: 50 20 26 26 (676000)
I0424 12:55:44.273540 32161 net.cpp:137] Memory required for data: 5879000
I0424 12:55:44.273547 32161 layer_factory.hpp:77] Creating layer scale1
I0424 12:55:44.273552 32161 net.cpp:84] Creating Layer scale1
I0424 12:55:44.273555 32161 net.cpp:406] scale1 <- bn1
I0424 12:55:44.273560 32161 net.cpp:380] scale1 -> scale1
I0424 12:55:44.273638 32161 layer_factory.hpp:77] Creating layer scale1
I0424 12:55:44.273712 32161 net.cpp:122] Setting up scale1
I0424 12:55:44.273718 32161 net.cpp:129] Top shape: 50 20 26 26 (676000)
I0424 12:55:44.273720 32161 net.cpp:137] Memory required for data: 8583000
I0424 12:55:44.273725 32161 layer_factory.hpp:77] Creating layer relu1
I0424 12:55:44.273728 32161 net.cpp:84] Creating Layer relu1
I0424 12:55:44.273731 32161 net.cpp:406] relu1 <- scale1
I0424 12:55:44.273735 32161 net.cpp:380] relu1 -> relu1
I0424 12:55:44.273818 32161 net.cpp:122] Setting up relu1
I0424 12:55:44.273823 32161 net.cpp:129] Top shape: 50 20 26 26 (676000)
I0424 12:55:44.273825 32161 net.cpp:137] Memory required for data: 11287000
I0424 12:55:44.273828 32161 layer_factory.hpp:77] Creating layer pool1
I0424 12:55:44.273833 32161 net.cpp:84] Creating Layer pool1
I0424 12:55:44.273834 32161 net.cpp:406] pool1 <- relu1
I0424 12:55:44.273838 32161 net.cpp:380] pool1 -> pool1
I0424 12:55:44.273861 32161 net.cpp:122] Setting up pool1
I0424 12:55:44.273867 32161 net.cpp:129] Top shape: 50 20 13 13 (169000)
I0424 12:55:44.273869 32161 net.cpp:137] Memory required for data: 11963000
I0424 12:55:44.273872 32161 layer_factory.hpp:77] Creating layer conv2
I0424 12:55:44.273890 32161 net.cpp:84] Creating Layer conv2
I0424 12:55:44.273892 32161 net.cpp:406] conv2 <- pool1
I0424 12:55:44.273896 32161 net.cpp:380] conv2 -> conv2
I0424 12:55:44.274718 32161 net.cpp:122] Setting up conv2
I0424 12:55:44.274729 32161 net.cpp:129] Top shape: 50 50 11 11 (302500)
I0424 12:55:44.274731 32161 net.cpp:137] Memory required for data: 13173000
I0424 12:55:44.274739 32161 layer_factory.hpp:77] Creating layer bn2
I0424 12:55:44.274746 32161 net.cpp:84] Creating Layer bn2
I0424 12:55:44.274749 32161 net.cpp:406] bn2 <- conv2
I0424 12:55:44.274755 32161 net.cpp:380] bn2 -> bn2
I0424 12:55:44.274883 32161 net.cpp:122] Setting up bn2
I0424 12:55:44.274888 32161 net.cpp:129] Top shape: 50 50 11 11 (302500)
I0424 12:55:44.274890 32161 net.cpp:137] Memory required for data: 14383000
I0424 12:55:44.274895 32161 layer_factory.hpp:77] Creating layer scale2
I0424 12:55:44.274900 32161 net.cpp:84] Creating Layer scale2
I0424 12:55:44.274902 32161 net.cpp:406] scale2 <- bn2
I0424 12:55:44.274905 32161 net.cpp:380] scale2 -> scale2
I0424 12:55:44.274929 32161 layer_factory.hpp:77] Creating layer scale2
I0424 12:55:44.274996 32161 net.cpp:122] Setting up scale2
I0424 12:55:44.275000 32161 net.cpp:129] Top shape: 50 50 11 11 (302500)
I0424 12:55:44.275002 32161 net.cpp:137] Memory required for data: 15593000
I0424 12:55:44.275007 32161 layer_factory.hpp:77] Creating layer relu2
I0424 12:55:44.275012 32161 net.cpp:84] Creating Layer relu2
I0424 12:55:44.275014 32161 net.cpp:406] relu2 <- scale2
I0424 12:55:44.275017 32161 net.cpp:380] relu2 -> relu2
I0424 12:55:44.275211 32161 net.cpp:122] Setting up relu2
I0424 12:55:44.275218 32161 net.cpp:129] Top shape: 50 50 11 11 (302500)
I0424 12:55:44.275221 32161 net.cpp:137] Memory required for data: 16803000
I0424 12:55:44.275223 32161 layer_factory.hpp:77] Creating layer pool2
I0424 12:55:44.275228 32161 net.cpp:84] Creating Layer pool2
I0424 12:55:44.275231 32161 net.cpp:406] pool2 <- relu2
I0424 12:55:44.275235 32161 net.cpp:380] pool2 -> pool2
I0424 12:55:44.275259 32161 net.cpp:122] Setting up pool2
I0424 12:55:44.275264 32161 net.cpp:129] Top shape: 50 50 6 6 (90000)
I0424 12:55:44.275265 32161 net.cpp:137] Memory required for data: 17163000
I0424 12:55:44.275267 32161 layer_factory.hpp:77] Creating layer fc1
I0424 12:55:44.275272 32161 net.cpp:84] Creating Layer fc1
I0424 12:55:44.275274 32161 net.cpp:406] fc1 <- pool2
I0424 12:55:44.275279 32161 net.cpp:380] fc1 -> fc1
I0424 12:55:44.279793 32161 net.cpp:122] Setting up fc1
I0424 12:55:44.279804 32161 net.cpp:129] Top shape: 50 500 (25000)
I0424 12:55:44.279808 32161 net.cpp:137] Memory required for data: 17263000
I0424 12:55:44.279814 32161 layer_factory.hpp:77] Creating layer relu3
I0424 12:55:44.279817 32161 net.cpp:84] Creating Layer relu3
I0424 12:55:44.279820 32161 net.cpp:406] relu3 <- fc1
I0424 12:55:44.279824 32161 net.cpp:380] relu3 -> relu3
I0424 12:55:44.279928 32161 net.cpp:122] Setting up relu3
I0424 12:55:44.279934 32161 net.cpp:129] Top shape: 50 500 (25000)
I0424 12:55:44.279937 32161 net.cpp:137] Memory required for data: 17363000
I0424 12:55:44.279939 32161 layer_factory.hpp:77] Creating layer fc2
I0424 12:55:44.279944 32161 net.cpp:84] Creating Layer fc2
I0424 12:55:44.279947 32161 net.cpp:406] fc2 <- relu3
I0424 12:55:44.279950 32161 net.cpp:380] fc2 -> fc2
I0424 12:55:44.280041 32161 net.cpp:122] Setting up fc2
I0424 12:55:44.280046 32161 net.cpp:129] Top shape: 50 10 (500)
I0424 12:55:44.280048 32161 net.cpp:137] Memory required for data: 17365000
I0424 12:55:44.280055 32161 layer_factory.hpp:77] Creating layer fc2_fc2_0_split
I0424 12:55:44.280059 32161 net.cpp:84] Creating Layer fc2_fc2_0_split
I0424 12:55:44.280062 32161 net.cpp:406] fc2_fc2_0_split <- fc2
I0424 12:55:44.280066 32161 net.cpp:380] fc2_fc2_0_split -> fc2_fc2_0_split_0
I0424 12:55:44.280071 32161 net.cpp:380] fc2_fc2_0_split -> fc2_fc2_0_split_1
I0424 12:55:44.280092 32161 net.cpp:122] Setting up fc2_fc2_0_split
I0424 12:55:44.280097 32161 net.cpp:129] Top shape: 50 10 (500)
I0424 12:55:44.280112 32161 net.cpp:129] Top shape: 50 10 (500)
I0424 12:55:44.280113 32161 net.cpp:137] Memory required for data: 17369000
I0424 12:55:44.280117 32161 layer_factory.hpp:77] Creating layer loss
I0424 12:55:44.280122 32161 net.cpp:84] Creating Layer loss
I0424 12:55:44.280123 32161 net.cpp:406] loss <- fc2_fc2_0_split_0
I0424 12:55:44.280128 32161 net.cpp:406] loss <- label_data_1_split_0
I0424 12:55:44.280131 32161 net.cpp:380] loss -> loss
…
