…
I0424 12:56:04.851627 32341 upgrade_proto.cpp:79] Attempting to upgrade batch norm layers using deprecated params: /home/danieleb/ML/mnist/caffe/models/LeNet/m3/deploy_3_LeNet.prototxt
I0424 12:56:04.851636 32341 upgrade_proto.cpp:82] Successfully upgraded batch norm layers using deprecated params.
I0424 12:56:04.851729 32341 net.cpp:51] Initializing net from parameters: 
state {
  phase: TEST
  level: 0
}
layer {
  name: "data"
  type: "Input"
  top: "data"
  input_param {
    shape {
      dim: 1
      dim: 3
      dim: 28
      dim: 28
    }
  }
}
layer {
  name: "conv1"
  type: "Convolution"
  bottom: "data"
  top: "conv1"
  param {
    lr_mult: 1
    decay_mult: 1
  }
  param {
    lr_mult: 2
    decay_mult: 0
  }
  convolution_param {
    num_output: 20
    pad: 1
    kernel_size: 5
    stride: 1
    weight_filler {
      type: "xavier"
    }
    bias_filler {
      type: "constant"
      value: 0
    }
  }
}
layer {
  name: "bn1"
  type: "BatchNorm"
  bottom: "conv1"
  top: "bn1"
  param {
    lr_mult: 0
    decay_mult: 0
  }
  param {
    lr_mult: 0
    decay_mult: 0
  }
  param {
    lr_mult: 0
    decay_mult: 0
  }
  batch_norm_param {
    use_global_stats: true
  }
}
layer {
  name: "scale1"
  type: "Scale"
  bottom: "bn1"
  top: "scale1"
  scale_param {
    bias_term: true
  }
}
layer {
  name: "relu1"
  type: "ReLU"
  bottom: "scale1"
  top: "relu1"
}
layer {
  name: "pool1"
  type: "Pooling"
  bottom: "relu1"
  top: "pool1"
  pooling_param {
    pool: MAX
    kernel_size: 2
    stride: 2
  }
}
layer {
  name: "conv2"
  type: "Convolution"
  bottom: "pool1"
  top: "conv2"
  param {
    lr_mult: 1
    decay_mult: 1
  }
  param {
    lr_mult: 2
    decay_mult: 0
  }
  convolution_param {
    num_output: 50
    pad: 1
    kernel_size: 5
    stride: 1
    weight_filler {
      type: "xavier"
    }
    bias_filler {
      type: "constant"
      value: 0
    }
  }
}
layer {
  name: "bn2"
  type: "BatchNorm"
  bottom: "conv2"
  top: "bn2"
  param {
    lr_mult: 0
    decay_mult: 0
  }
  param {
    lr_mult: 0
    decay_mult: 0
  }
  param {
    lr_mult: 0
    decay_mult: 0
  }
  batch_norm_param {
    use_global_stats: true
  }
}
layer {
  name: "scale2"
  type: "Scale"
  bottom: "bn2"
  top: "scale2"
  scale_param {
    bias_term: true
  }
}
layer {
  name: "relu2"
  type: "ReLU"
  bottom: "scale2"
  top: "relu2"
}
layer {
  name: "pool2"
  type: "Pooling"
  bottom: "relu2"
  top: "pool2"
  pooling_param {
    pool: MAX
    kernel_size: 2
    stride: 2
  }
}
layer {
  name: "fc1"
  type: "InnerProduct"
  bottom: "pool2"
  top: "fc1"
  param {
    lr_mult: 1
    decay_mult: 1
  }
  param {
    lr_mult: 2
    decay_mult: 0
  }
  inner_product_param {
    num_output: 500
    weight_filler {
      type: "xavier"
    }
    bias_filler {
      type: "constant"
      value: 1
    }
  }
}
layer {
  name: "relu3"
  type: "ReLU"
  bottom: "fc1"
  top: "relu3"
}
layer {
  name: "fc2"
  type: "InnerProduct"
  bottom: "relu3"
  top: "fc2"
  param {
    lr_mult: 1
    decay_mult: 1
  }
  param {
    lr_mult: 2
    decay_mult: 0
  }
  inner_product_param {
    num_output: 10
    weight_filler {
      type: "xavier"
    }
    bias_filler {
      type: "constant"
      value: 1
    }
  }
}
layer {
  name: "prob"
  type: "Softmax"
  bottom: "fc2"
  top: "prob"
}
I0424 12:56:04.851779 32341 layer_factory.hpp:77] Creating layer data
I0424 12:56:04.851785 32341 net.cpp:84] Creating Layer data
I0424 12:56:04.851791 32341 net.cpp:380] data -> data
I0424 12:56:04.860695 32341 net.cpp:122] Setting up data
I0424 12:56:04.860710 32341 net.cpp:129] Top shape: 1 3 28 28 (2352)
I0424 12:56:04.860713 32341 net.cpp:137] Memory required for data: 9408
I0424 12:56:04.860716 32341 layer_factory.hpp:77] Creating layer conv1
I0424 12:56:04.860730 32341 net.cpp:84] Creating Layer conv1
I0424 12:56:04.860733 32341 net.cpp:406] conv1 <- data
I0424 12:56:04.860738 32341 net.cpp:380] conv1 -> conv1
I0424 12:56:05.522300 32341 net.cpp:122] Setting up conv1
I0424 12:56:05.522325 32341 net.cpp:129] Top shape: 1 20 26 26 (13520)
I0424 12:56:05.522327 32341 net.cpp:137] Memory required for data: 63488
I0424 12:56:05.522356 32341 layer_factory.hpp:77] Creating layer bn1
I0424 12:56:05.522367 32341 net.cpp:84] Creating Layer bn1
I0424 12:56:05.522368 32341 net.cpp:406] bn1 <- conv1
I0424 12:56:05.522374 32341 net.cpp:380] bn1 -> bn1
I0424 12:56:05.522497 32341 net.cpp:122] Setting up bn1
I0424 12:56:05.522502 32341 net.cpp:129] Top shape: 1 20 26 26 (13520)
I0424 12:56:05.522505 32341 net.cpp:137] Memory required for data: 117568
I0424 12:56:05.522511 32341 layer_factory.hpp:77] Creating layer scale1
I0424 12:56:05.522517 32341 net.cpp:84] Creating Layer scale1
I0424 12:56:05.522519 32341 net.cpp:406] scale1 <- bn1
I0424 12:56:05.522522 32341 net.cpp:380] scale1 -> scale1
I0424 12:56:05.522544 32341 layer_factory.hpp:77] Creating layer scale1
I0424 12:56:05.522611 32341 net.cpp:122] Setting up scale1
I0424 12:56:05.522615 32341 net.cpp:129] Top shape: 1 20 26 26 (13520)
I0424 12:56:05.522617 32341 net.cpp:137] Memory required for data: 171648
I0424 12:56:05.522620 32341 layer_factory.hpp:77] Creating layer relu1
I0424 12:56:05.522624 32341 net.cpp:84] Creating Layer relu1
I0424 12:56:05.522626 32341 net.cpp:406] relu1 <- scale1
I0424 12:56:05.522629 32341 net.cpp:380] relu1 -> relu1
I0424 12:56:05.522706 32341 net.cpp:122] Setting up relu1
I0424 12:56:05.522711 32341 net.cpp:129] Top shape: 1 20 26 26 (13520)
I0424 12:56:05.522712 32341 net.cpp:137] Memory required for data: 225728
I0424 12:56:05.522714 32341 layer_factory.hpp:77] Creating layer pool1
I0424 12:56:05.522718 32341 net.cpp:84] Creating Layer pool1
I0424 12:56:05.522720 32341 net.cpp:406] pool1 <- relu1
I0424 12:56:05.522723 32341 net.cpp:380] pool1 -> pool1
I0424 12:56:05.522742 32341 net.cpp:122] Setting up pool1
I0424 12:56:05.522745 32341 net.cpp:129] Top shape: 1 20 13 13 (3380)
I0424 12:56:05.522747 32341 net.cpp:137] Memory required for data: 239248
I0424 12:56:05.522749 32341 layer_factory.hpp:77] Creating layer conv2
I0424 12:56:05.522756 32341 net.cpp:84] Creating Layer conv2
I0424 12:56:05.522758 32341 net.cpp:406] conv2 <- pool1
I0424 12:56:05.522761 32341 net.cpp:380] conv2 -> conv2
I0424 12:56:05.523375 32341 net.cpp:122] Setting up conv2
I0424 12:56:05.523386 32341 net.cpp:129] Top shape: 1 50 11 11 (6050)
I0424 12:56:05.523387 32341 net.cpp:137] Memory required for data: 263448
I0424 12:56:05.523394 32341 layer_factory.hpp:77] Creating layer bn2
I0424 12:56:05.523401 32341 net.cpp:84] Creating Layer bn2
I0424 12:56:05.523403 32341 net.cpp:406] bn2 <- conv2
I0424 12:56:05.523408 32341 net.cpp:380] bn2 -> bn2
I0424 12:56:05.523524 32341 net.cpp:122] Setting up bn2
I0424 12:56:05.523527 32341 net.cpp:129] Top shape: 1 50 11 11 (6050)
I0424 12:56:05.523530 32341 net.cpp:137] Memory required for data: 287648
I0424 12:56:05.523535 32341 layer_factory.hpp:77] Creating layer scale2
I0424 12:56:05.523540 32341 net.cpp:84] Creating Layer scale2
I0424 12:56:05.523541 32341 net.cpp:406] scale2 <- bn2
I0424 12:56:05.523545 32341 net.cpp:380] scale2 -> scale2
I0424 12:56:05.523564 32341 layer_factory.hpp:77] Creating layer scale2
I0424 12:56:05.523623 32341 net.cpp:122] Setting up scale2
I0424 12:56:05.523627 32341 net.cpp:129] Top shape: 1 50 11 11 (6050)
I0424 12:56:05.523630 32341 net.cpp:137] Memory required for data: 311848
I0424 12:56:05.523633 32341 layer_factory.hpp:77] Creating layer relu2
I0424 12:56:05.523636 32341 net.cpp:84] Creating Layer relu2
I0424 12:56:05.523638 32341 net.cpp:406] relu2 <- scale2
I0424 12:56:05.523641 32341 net.cpp:380] relu2 -> relu2
I0424 12:56:05.523824 32341 net.cpp:122] Setting up relu2
I0424 12:56:05.523830 32341 net.cpp:129] Top shape: 1 50 11 11 (6050)
I0424 12:56:05.523833 32341 net.cpp:137] Memory required for data: 336048
I0424 12:56:05.523835 32341 layer_factory.hpp:77] Creating layer pool2
I0424 12:56:05.523839 32341 net.cpp:84] Creating Layer pool2
I0424 12:56:05.523841 32341 net.cpp:406] pool2 <- relu2
I0424 12:56:05.523845 32341 net.cpp:380] pool2 -> pool2
I0424 12:56:05.523865 32341 net.cpp:122] Setting up pool2
I0424 12:56:05.523870 32341 net.cpp:129] Top shape: 1 50 6 6 (1800)
I0424 12:56:05.523871 32341 net.cpp:137] Memory required for data: 343248
I0424 12:56:05.523874 32341 layer_factory.hpp:77] Creating layer fc1
I0424 12:56:05.523878 32341 net.cpp:84] Creating Layer fc1
I0424 12:56:05.523880 32341 net.cpp:406] fc1 <- pool2
I0424 12:56:05.523883 32341 net.cpp:380] fc1 -> fc1
I0424 12:56:05.527989 32341 net.cpp:122] Setting up fc1
I0424 12:56:05.528000 32341 net.cpp:129] Top shape: 1 500 (500)
I0424 12:56:05.528002 32341 net.cpp:137] Memory required for data: 345248
I0424 12:56:05.528008 32341 layer_factory.hpp:77] Creating layer relu3
I0424 12:56:05.528012 32341 net.cpp:84] Creating Layer relu3
I0424 12:56:05.528015 32341 net.cpp:406] relu3 <- fc1
I0424 12:56:05.528018 32341 net.cpp:380] relu3 -> relu3
I0424 12:56:05.528105 32341 net.cpp:122] Setting up relu3
I0424 12:56:05.528110 32341 net.cpp:129] Top shape: 1 500 (500)
I0424 12:56:05.528110 32341 net.cpp:137] Memory required for data: 347248
I0424 12:56:05.528112 32341 layer_factory.hpp:77] Creating layer fc2
I0424 12:56:05.528117 32341 net.cpp:84] Creating Layer fc2
I0424 12:56:05.528120 32341 net.cpp:406] fc2 <- relu3
I0424 12:56:05.528123 32341 net.cpp:380] fc2 -> fc2
I0424 12:56:05.528200 32341 net.cpp:122] Setting up fc2
I0424 12:56:05.528203 32341 net.cpp:129] Top shape: 1 10 (10)
I0424 12:56:05.528205 32341 net.cpp:137] Memory required for data: 347288
I0424 12:56:05.528211 32341 layer_factory.hpp:77] Creating layer prob
I0424 12:56:05.528215 32341 net.cpp:84] Creating Layer prob
I0424 12:56:05.528218 32341 net.cpp:406] prob <- fc2
I0424 12:56:05.528219 32341 net.cpp:380] prob -> prob
I0424 12:56:05.528426 32341 net.cpp:122] Setting up prob
I0424 12:56:05.528432 32341 net.cpp:129] Top shape: 1 10 (10)
I0424 12:56:05.528434 32341 net.cpp:137] Memory required for data: 347328
I0424 12:56:05.528435 32341 net.cpp:200] prob does not need backward computation.
I0424 12:56:05.528439 32341 net.cpp:200] fc2 does not need backward computation.
I0424 12:56:05.528440 32341 net.cpp:200] relu3 does not need backward computation.
I0424 12:56:05.528442 32341 net.cpp:200] fc1 does not need backward computation.
…
