…
I0429 12:37:59.999428  3945 net.cpp:294] The NetState phase (0) differed from the phase (1) specified by a rule in layer accuracy
I0429 12:37:59.999580  3945 net.cpp:51] Initializing net from parameters: 
name: "LeNet on MNIST m6 NO-inPlace"
state {
  phase: TRAIN
  level: 0
  stage: ""
}
layer {
  name: "data"
  type: "Data"
  top: "data"
  top: "label"
  include {
    phase: TRAIN
  }
  transform_param {
    mirror: true
    mean_value: 33.68
    mean_value: 33.68
    mean_value: 33.68
  }
  data_param {
    source: "/home/ubuntu/ML/mnist/input/lmdb/train_lmdb"
    batch_size: 128
    backend: LMDB
  }
}
layer {
  name: "conv1"
  type: "Convolution"
  bottom: "data"
  top: "conv1"
  param {
    lr_mult: 1
    decay_mult: 1
  }
  param {
    lr_mult: 2
    decay_mult: 0
  }
  convolution_param {
    num_output: 20
    pad: 1
    kernel_size: 5
    stride: 1
    weight_filler {
      type: "xavier"
    }
    bias_filler {
      type: "constant"
      value: 0
    }
  }
}
layer {
  name: "bn1"
  type: "BatchNorm"
  bottom: "conv1"
  top: "bn1"
  param {
    lr_mult: 0
    decay_mult: 0
  }
  param {
    lr_mult: 0
    decay_mult: 0
  }
  param {
    lr_mult: 0
    decay_mult: 0
  }
  batch_norm_param {
    use_global_stats: false
  }
}
layer {
  name: "scale1"
  type: "Scale"
  bottom: "bn1"
  top: "scale1"
  scale_param {
    bias_term: true
  }
}
layer {
  name: "relu1"
  type: "ReLU"
  bottom: "scale1"
  top: "relu1"
}
layer {
  name: "pool1"
  type: "Pooling"
  bottom: "relu1"
  top: "pool1"
  pooling_param {
    pool: MAX
    kernel_size: 2
    stride: 2
  }
}
layer {
  name: "conv2"
  type: "Convolution"
  bottom: "pool1"
  top: "conv2"
  param {
    lr_mult: 1
    decay_mult: 1
  }
  param {
    lr_mult: 2
    decay_mult: 0
  }
  convolution_param {
    num_output: 50
    pad: 1
    kernel_size: 5
    stride: 1
    weight_filler {
      type: "xavier"
    }
    bias_filler {
      type: "constant"
      value: 0
    }
  }
}
layer {
  name: "bn2"
  type: "BatchNorm"
  bottom: "conv2"
  top: "bn2"
  param {
    lr_mult: 0
    decay_mult: 0
  }
  param {
    lr_mult: 0
    decay_mult: 0
  }
  param {
    lr_mult: 0
    decay_mult: 0
  }
  batch_norm_param {
    use_global_stats: false
  }
}
layer {
  name: "scale2"
  type: "Scale"
  bottom: "bn2"
  top: "scale2"
  scale_param {
    bias_term: true
  }
}
layer {
  name: "relu2"
  type: "ReLU"
  bottom: "scale2"
  top: "relu2"
}
layer {
  name: "pool2"
  type: "Pooling"
  bottom: "relu2"
  top: "pool2"
  pooling_param {
    pool: MAX
    kernel_size: 2
    stride: 2
  }
}
layer {
  name: "fc1"
  type: "InnerProduct"
  bottom: "pool2"
  top: "fc1"
  param {
    lr_mult: 1
    decay_mult: 1
  }
  param {
    lr_mult: 2
    decay_mult: 0
  }
  inner_product_param {
    num_output: 500
    weight_filler {
      type: "xavier"
    }
    bias_filler {
      type: "constant"
      value: 1
    }
  }
}
layer {
  name: "relu3"
  type: "ReLU"
  bottom: "fc1"
  top: "relu3"
}
layer {
  name: "fc2"
  type: "InnerProduct"
  bottom: "relu3"
  top: "fc2"
  param {
    lr_mult: 1
    decay_mult: 1
  }
  param {
    lr_mult: 2
    decay_mult: 0
  }
  inner_product_param {
    num_output: 10
    weight_filler {
      type: "xavier"
    }
    bias_filler {
      type: "constant"
      value: 1
    }
  }
}
layer {
  name: "loss"
  type: "SoftmaxWithLoss"
  bottom: "fc2"
  bottom: "label"
  top: "loss"
}
I0429 12:37:59.999733  3945 layer_factory.hpp:77] Creating layer data
I0429 12:37:59.999883  3945 db_lmdb.cpp:35] Opened lmdb /home/ubuntu/ML/mnist/input/lmdb/train_lmdb
I0429 12:37:59.999927  3945 net.cpp:84] Creating Layer data
I0429 12:37:59.999940  3945 net.cpp:380] data -> data
I0429 12:37:59.999976  3945 net.cpp:380] data -> label
I0429 12:38:00.000773  3945 data_layer.cpp:45] output data size: 128,3,28,28
I0429 12:38:00.005214  3945 net.cpp:122] Setting up data
I0429 12:38:00.005244  3945 net.cpp:129] Top shape: 128 3 28 28 (301056)
I0429 12:38:00.005254  3945 net.cpp:129] Top shape: 128 (128)
I0429 12:38:00.005260  3945 net.cpp:137] Memory required for data: 1204736
I0429 12:38:00.005280  3945 layer_factory.hpp:77] Creating layer conv1
I0429 12:38:00.005311  3945 net.cpp:84] Creating Layer conv1
I0429 12:38:00.005326  3945 net.cpp:406] conv1 <- data
I0429 12:38:00.005357  3945 net.cpp:380] conv1 -> conv1
I0429 12:38:00.458065  3945 net.cpp:122] Setting up conv1
I0429 12:38:00.458107  3945 net.cpp:129] Top shape: 128 20 26 26 (1730560)
I0429 12:38:00.458114  3945 net.cpp:137] Memory required for data: 8126976
I0429 12:38:00.458137  3945 layer_factory.hpp:77] Creating layer bn1
I0429 12:38:00.458163  3945 net.cpp:84] Creating Layer bn1
I0429 12:38:00.458178  3945 net.cpp:406] bn1 <- conv1
I0429 12:38:00.458190  3945 net.cpp:380] bn1 -> bn1
I0429 12:38:00.458439  3945 net.cpp:122] Setting up bn1
I0429 12:38:00.458456  3945 net.cpp:129] Top shape: 128 20 26 26 (1730560)
I0429 12:38:00.458461  3945 net.cpp:137] Memory required for data: 15049216
I0429 12:38:00.458479  3945 layer_factory.hpp:77] Creating layer scale1
I0429 12:38:00.458506  3945 net.cpp:84] Creating Layer scale1
I0429 12:38:00.458521  3945 net.cpp:406] scale1 <- bn1
I0429 12:38:00.458530  3945 net.cpp:380] scale1 -> scale1
I0429 12:38:00.458595  3945 layer_factory.hpp:77] Creating layer scale1
I0429 12:38:00.458748  3945 net.cpp:122] Setting up scale1
I0429 12:38:00.458765  3945 net.cpp:129] Top shape: 128 20 26 26 (1730560)
I0429 12:38:00.458770  3945 net.cpp:137] Memory required for data: 21971456
I0429 12:38:00.458778  3945 layer_factory.hpp:77] Creating layer relu1
I0429 12:38:00.458796  3945 net.cpp:84] Creating Layer relu1
I0429 12:38:00.458809  3945 net.cpp:406] relu1 <- scale1
I0429 12:38:00.458818  3945 net.cpp:380] relu1 -> relu1
I0429 12:38:00.459130  3945 net.cpp:122] Setting up relu1
I0429 12:38:00.459153  3945 net.cpp:129] Top shape: 128 20 26 26 (1730560)
I0429 12:38:00.459158  3945 net.cpp:137] Memory required for data: 28893696
I0429 12:38:00.459163  3945 layer_factory.hpp:77] Creating layer pool1
I0429 12:38:00.459179  3945 net.cpp:84] Creating Layer pool1
I0429 12:38:00.459193  3945 net.cpp:406] pool1 <- relu1
I0429 12:38:00.459203  3945 net.cpp:380] pool1 -> pool1
I0429 12:38:00.459280  3945 net.cpp:122] Setting up pool1
I0429 12:38:00.459295  3945 net.cpp:129] Top shape: 128 20 13 13 (432640)
I0429 12:38:00.459300  3945 net.cpp:137] Memory required for data: 30624256
I0429 12:38:00.459305  3945 layer_factory.hpp:77] Creating layer conv2
I0429 12:38:00.459321  3945 net.cpp:84] Creating Layer conv2
I0429 12:38:00.459337  3945 net.cpp:406] conv2 <- pool1
I0429 12:38:00.459350  3945 net.cpp:380] conv2 -> conv2
I0429 12:38:00.461035  3945 net.cpp:122] Setting up conv2
I0429 12:38:00.461062  3945 net.cpp:129] Top shape: 128 50 11 11 (774400)
I0429 12:38:00.461069  3945 net.cpp:137] Memory required for data: 33721856
I0429 12:38:00.461093  3945 layer_factory.hpp:77] Creating layer bn2
I0429 12:38:00.461115  3945 net.cpp:84] Creating Layer bn2
I0429 12:38:00.461123  3945 net.cpp:406] bn2 <- conv2
I0429 12:38:00.461158  3945 net.cpp:380] bn2 -> bn2
I0429 12:38:00.461396  3945 net.cpp:122] Setting up bn2
I0429 12:38:00.461413  3945 net.cpp:129] Top shape: 128 50 11 11 (774400)
I0429 12:38:00.461417  3945 net.cpp:137] Memory required for data: 36819456
I0429 12:38:00.461431  3945 layer_factory.hpp:77] Creating layer scale2
I0429 12:38:00.461449  3945 net.cpp:84] Creating Layer scale2
I0429 12:38:00.461463  3945 net.cpp:406] scale2 <- bn2
I0429 12:38:00.461473  3945 net.cpp:380] scale2 -> scale2
I0429 12:38:00.461535  3945 layer_factory.hpp:77] Creating layer scale2
I0429 12:38:00.461683  3945 net.cpp:122] Setting up scale2
I0429 12:38:00.461700  3945 net.cpp:129] Top shape: 128 50 11 11 (774400)
I0429 12:38:00.461704  3945 net.cpp:137] Memory required for data: 39917056
I0429 12:38:00.461714  3945 layer_factory.hpp:77] Creating layer relu2
I0429 12:38:00.461731  3945 net.cpp:84] Creating Layer relu2
I0429 12:38:00.461740  3945 net.cpp:406] relu2 <- scale2
I0429 12:38:00.461750  3945 net.cpp:380] relu2 -> relu2
I0429 12:38:00.462044  3945 net.cpp:122] Setting up relu2
I0429 12:38:00.462066  3945 net.cpp:129] Top shape: 128 50 11 11 (774400)
I0429 12:38:00.462071  3945 net.cpp:137] Memory required for data: 43014656
I0429 12:38:00.462076  3945 layer_factory.hpp:77] Creating layer pool2
I0429 12:38:00.462092  3945 net.cpp:84] Creating Layer pool2
I0429 12:38:00.462107  3945 net.cpp:406] pool2 <- relu2
I0429 12:38:00.462117  3945 net.cpp:380] pool2 -> pool2
I0429 12:38:00.462193  3945 net.cpp:122] Setting up pool2
I0429 12:38:00.462208  3945 net.cpp:129] Top shape: 128 50 6 6 (230400)
I0429 12:38:00.462213  3945 net.cpp:137] Memory required for data: 43936256
I0429 12:38:00.462216  3945 layer_factory.hpp:77] Creating layer fc1
I0429 12:38:00.462229  3945 net.cpp:84] Creating Layer fc1
I0429 12:38:00.462244  3945 net.cpp:406] fc1 <- pool2
I0429 12:38:00.462257  3945 net.cpp:380] fc1 -> fc1
I0429 12:38:00.468639  3945 net.cpp:122] Setting up fc1
I0429 12:38:00.468659  3945 net.cpp:129] Top shape: 128 500 (64000)
I0429 12:38:00.468665  3945 net.cpp:137] Memory required for data: 44192256
I0429 12:38:00.468675  3945 layer_factory.hpp:77] Creating layer relu3
I0429 12:38:00.468696  3945 net.cpp:84] Creating Layer relu3
I0429 12:38:00.468706  3945 net.cpp:406] relu3 <- fc1
I0429 12:38:00.468717  3945 net.cpp:380] relu3 -> relu3
I0429 12:38:00.469030  3945 net.cpp:122] Setting up relu3
I0429 12:38:00.469053  3945 net.cpp:129] Top shape: 128 500 (64000)
I0429 12:38:00.469058  3945 net.cpp:137] Memory required for data: 44448256
I0429 12:38:00.469074  3945 layer_factory.hpp:77] Creating layer fc2
I0429 12:38:00.469086  3945 net.cpp:84] Creating Layer fc2
I0429 12:38:00.469100  3945 net.cpp:406] fc2 <- relu3
I0429 12:38:00.469115  3945 net.cpp:380] fc2 -> fc2
I0429 12:38:00.469866  3945 net.cpp:122] Setting up fc2
I0429 12:38:00.469887  3945 net.cpp:129] Top shape: 128 10 (1280)
I0429 12:38:00.469892  3945 net.cpp:137] Memory required for data: 44453376
I0429 12:38:00.469907  3945 layer_factory.hpp:77] Creating layer loss
I0429 12:38:00.469931  3945 net.cpp:84] Creating Layer loss
I0429 12:38:00.469941  3945 net.cpp:406] loss <- fc2
I0429 12:38:00.469949  3945 net.cpp:406] loss <- label
I0429 12:38:00.469965  3945 net.cpp:380] loss -> loss
I0429 12:38:00.469988  3945 layer_factory.hpp:77] Creating layer loss
…
I0429 12:38:00.471014  3945 net.cpp:294] The NetState phase (1) differed from the phase (0) specified by a rule in layer data
I0429 12:38:00.471177  3945 net.cpp:51] Initializing net from parameters: 
name: "LeNet on MNIST m6 NO-inPlace"
state {
  phase: TEST
}
layer {
  name: "data"
  type: "Data"
  top: "data"
  top: "label"
  include {
    phase: TEST
  }
  transform_param {
    mirror: false
    mean_value: 33.68
    mean_value: 33.68
    mean_value: 33.68
  }
  data_param {
    source: "/home/ubuntu/ML/mnist/input/lmdb/valid_lmdb"
    batch_size: 50
    backend: LMDB
  }
}
layer {
  name: "conv1"
  type: "Convolution"
  bottom: "data"
  top: "conv1"
  param {
    lr_mult: 1
    decay_mult: 1
  }
  param {
    lr_mult: 2
    decay_mult: 0
  }
  convolution_param {
    num_output: 20
    pad: 1
    kernel_size: 5
    stride: 1
    weight_filler {
      type: "xavier"
    }
    bias_filler {
      type: "constant"
      value: 0
    }
  }
}
layer {
  name: "bn1"
  type: "BatchNorm"
  bottom: "conv1"
  top: "bn1"
  param {
    lr_mult: 0
    decay_mult: 0
  }
  param {
    lr_mult: 0
    decay_mult: 0
  }
  param {
    lr_mult: 0
    decay_mult: 0
  }
  batch_norm_param {
    use_global_stats: false
  }
}
layer {
  name: "scale1"
  type: "Scale"
  bottom: "bn1"
  top: "scale1"
  scale_param {
    bias_term: true
  }
}
layer {
  name: "relu1"
  type: "ReLU"
  bottom: "scale1"
  top: "relu1"
}
layer {
  name: "pool1"
  type: "Pooling"
  bottom: "relu1"
  top: "pool1"
  pooling_param {
    pool: MAX
    kernel_size: 2
    stride: 2
  }
}
layer {
  name: "conv2"
  type: "Convolution"
  bottom: "pool1"
  top: "conv2"
  param {
    lr_mult: 1
    decay_mult: 1
  }
  param {
    lr_mult: 2
    decay_mult: 0
  }
  convolution_param {
    num_output: 50
    pad: 1
    kernel_size: 5
    stride: 1
    weight_filler {
      type: "xavier"
    }
    bias_filler {
      type: "constant"
      value: 0
    }
  }
}
layer {
  name: "bn2"
  type: "BatchNorm"
  bottom: "conv2"
  top: "bn2"
  param {
    lr_mult: 0
    decay_mult: 0
  }
  param {
    lr_mult: 0
    decay_mult: 0
  }
  param {
    lr_mult: 0
    decay_mult: 0
  }
  batch_norm_param {
    use_global_stats: false
  }
}
layer {
  name: "scale2"
  type: "Scale"
  bottom: "bn2"
  top: "scale2"
  scale_param {
    bias_term: true
  }
}
layer {
  name: "relu2"
  type: "ReLU"
  bottom: "scale2"
  top: "relu2"
}
layer {
  name: "pool2"
  type: "Pooling"
  bottom: "relu2"
  top: "pool2"
  pooling_param {
    pool: MAX
    kernel_size: 2
    stride: 2
  }
}
layer {
  name: "fc1"
  type: "InnerProduct"
  bottom: "pool2"
  top: "fc1"
  param {
    lr_mult: 1
    decay_mult: 1
  }
  param {
    lr_mult: 2
    decay_mult: 0
  }
  inner_product_param {
    num_output: 500
    weight_filler {
      type: "xavier"
    }
    bias_filler {
      type: "constant"
      value: 1
    }
  }
}
layer {
  name: "relu3"
  type: "ReLU"
  bottom: "fc1"
  top: "relu3"
}
layer {
  name: "fc2"
  type: "InnerProduct"
  bottom: "relu3"
  top: "fc2"
  param {
    lr_mult: 1
    decay_mult: 1
  }
  param {
    lr_mult: 2
    decay_mult: 0
  }
  inner_product_param {
    num_output: 10
    weight_filler {
      type: "xavier"
    }
    bias_filler {
      type: "constant"
      value: 1
    }
  }
}
layer {
  name: "loss"
  type: "SoftmaxWithLoss"
  bottom: "fc2"
  bottom: "label"
  top: "loss"
}
layer {
  name: "accuracy"
  type: "Accuracy"
  bottom: "fc2"
  bottom: "label"
  top: "accuracy"
  include {
    phase: TEST
  }
}
I0429 12:38:00.471330  3945 layer_factory.hpp:77] Creating layer data
I0429 12:38:00.471421  3945 db_lmdb.cpp:35] Opened lmdb /home/ubuntu/ML/mnist/input/lmdb/valid_lmdb
I0429 12:38:00.471451  3945 net.cpp:84] Creating Layer data
I0429 12:38:00.471467  3945 net.cpp:380] data -> data
I0429 12:38:00.471480  3945 net.cpp:380] data -> label
I0429 12:38:00.471642  3945 data_layer.cpp:45] output data size: 50,3,28,28
I0429 12:38:00.474632  3945 net.cpp:122] Setting up data
I0429 12:38:00.474689  3945 net.cpp:129] Top shape: 50 3 28 28 (117600)
I0429 12:38:00.474706  3945 net.cpp:129] Top shape: 50 (50)
I0429 12:38:00.474714  3945 net.cpp:137] Memory required for data: 470600
I0429 12:38:00.474721  3945 layer_factory.hpp:77] Creating layer label_data_1_split
I0429 12:38:00.474732  3945 net.cpp:84] Creating Layer label_data_1_split
I0429 12:38:00.474747  3945 net.cpp:406] label_data_1_split <- label
I0429 12:38:00.474758  3945 net.cpp:380] label_data_1_split -> label_data_1_split_0
I0429 12:38:00.474773  3945 net.cpp:380] label_data_1_split -> label_data_1_split_1
I0429 12:38:00.474927  3945 net.cpp:122] Setting up label_data_1_split
I0429 12:38:00.474943  3945 net.cpp:129] Top shape: 50 (50)
I0429 12:38:00.474949  3945 net.cpp:129] Top shape: 50 (50)
I0429 12:38:00.474953  3945 net.cpp:137] Memory required for data: 471000
I0429 12:38:00.474957  3945 layer_factory.hpp:77] Creating layer conv1
I0429 12:38:00.474974  3945 net.cpp:84] Creating Layer conv1
I0429 12:38:00.474990  3945 net.cpp:406] conv1 <- data
I0429 12:38:00.475005  3945 net.cpp:380] conv1 -> conv1
I0429 12:38:00.476862  3945 net.cpp:122] Setting up conv1
I0429 12:38:00.476891  3945 net.cpp:129] Top shape: 50 20 26 26 (676000)
I0429 12:38:00.476897  3945 net.cpp:137] Memory required for data: 3175000
I0429 12:38:00.476909  3945 layer_factory.hpp:77] Creating layer bn1
I0429 12:38:00.476925  3945 net.cpp:84] Creating Layer bn1
I0429 12:38:00.476944  3945 net.cpp:406] bn1 <- conv1
I0429 12:38:00.476956  3945 net.cpp:380] bn1 -> bn1
I0429 12:38:00.477226  3945 net.cpp:122] Setting up bn1
I0429 12:38:00.477243  3945 net.cpp:129] Top shape: 50 20 26 26 (676000)
I0429 12:38:00.477248  3945 net.cpp:137] Memory required for data: 5879000
I0429 12:38:00.477268  3945 layer_factory.hpp:77] Creating layer scale1
I0429 12:38:00.477288  3945 net.cpp:84] Creating Layer scale1
I0429 12:38:00.477294  3945 net.cpp:406] scale1 <- bn1
I0429 12:38:00.477308  3945 net.cpp:380] scale1 -> scale1
I0429 12:38:00.477427  3945 layer_factory.hpp:77] Creating layer scale1
I0429 12:38:00.477634  3945 net.cpp:122] Setting up scale1
I0429 12:38:00.477649  3945 net.cpp:129] Top shape: 50 20 26 26 (676000)
I0429 12:38:00.477654  3945 net.cpp:137] Memory required for data: 8583000
I0429 12:38:00.477663  3945 layer_factory.hpp:77] Creating layer relu1
I0429 12:38:00.477671  3945 net.cpp:84] Creating Layer relu1
I0429 12:38:00.477685  3945 net.cpp:406] relu1 <- scale1
I0429 12:38:00.477697  3945 net.cpp:380] relu1 -> relu1
I0429 12:38:00.478113  3945 net.cpp:122] Setting up relu1
I0429 12:38:00.478134  3945 net.cpp:129] Top shape: 50 20 26 26 (676000)
I0429 12:38:00.478138  3945 net.cpp:137] Memory required for data: 11287000
I0429 12:38:00.478143  3945 layer_factory.hpp:77] Creating layer pool1
I0429 12:38:00.478152  3945 net.cpp:84] Creating Layer pool1
I0429 12:38:00.478170  3945 net.cpp:406] pool1 <- relu1
I0429 12:38:00.478183  3945 net.cpp:380] pool1 -> pool1
I0429 12:38:00.478256  3945 net.cpp:122] Setting up pool1
I0429 12:38:00.478286  3945 net.cpp:129] Top shape: 50 20 13 13 (169000)
I0429 12:38:00.478293  3945 net.cpp:137] Memory required for data: 11963000
I0429 12:38:00.478301  3945 layer_factory.hpp:77] Creating layer conv2
I0429 12:38:00.478315  3945 net.cpp:84] Creating Layer conv2
I0429 12:38:00.478322  3945 net.cpp:406] conv2 <- pool1
I0429 12:38:00.478332  3945 net.cpp:380] conv2 -> conv2
I0429 12:38:00.479650  3945 net.cpp:122] Setting up conv2
I0429 12:38:00.479670  3945 net.cpp:129] Top shape: 50 50 11 11 (302500)
I0429 12:38:00.479674  3945 net.cpp:137] Memory required for data: 13173000
I0429 12:38:00.479686  3945 layer_factory.hpp:77] Creating layer bn2
I0429 12:38:00.479701  3945 net.cpp:84] Creating Layer bn2
I0429 12:38:00.479719  3945 net.cpp:406] bn2 <- conv2
I0429 12:38:00.479732  3945 net.cpp:380] bn2 -> bn2
I0429 12:38:00.480098  3945 net.cpp:122] Setting up bn2
I0429 12:38:00.480114  3945 net.cpp:129] Top shape: 50 50 11 11 (302500)
I0429 12:38:00.480118  3945 net.cpp:137] Memory required for data: 14383000
I0429 12:38:00.480129  3945 layer_factory.hpp:77] Creating layer scale2
I0429 12:38:00.480139  3945 net.cpp:84] Creating Layer scale2
I0429 12:38:00.480154  3945 net.cpp:406] scale2 <- bn2
I0429 12:38:00.480163  3945 net.cpp:380] scale2 -> scale2
I0429 12:38:00.480300  3945 layer_factory.hpp:77] Creating layer scale2
I0429 12:38:00.480471  3945 net.cpp:122] Setting up scale2
I0429 12:38:00.480491  3945 net.cpp:129] Top shape: 50 50 11 11 (302500)
I0429 12:38:00.480495  3945 net.cpp:137] Memory required for data: 15593000
I0429 12:38:00.480504  3945 layer_factory.hpp:77] Creating layer relu2
I0429 12:38:00.480513  3945 net.cpp:84] Creating Layer relu2
I0429 12:38:00.480528  3945 net.cpp:406] relu2 <- scale2
I0429 12:38:00.480537  3945 net.cpp:380] relu2 -> relu2
I0429 12:38:00.480851  3945 net.cpp:122] Setting up relu2
I0429 12:38:00.480871  3945 net.cpp:129] Top shape: 50 50 11 11 (302500)
I0429 12:38:00.480911  3945 net.cpp:137] Memory required for data: 16803000
I0429 12:38:00.480928  3945 layer_factory.hpp:77] Creating layer pool2
I0429 12:38:00.480939  3945 net.cpp:84] Creating Layer pool2
I0429 12:38:00.480944  3945 net.cpp:406] pool2 <- relu2
I0429 12:38:00.480950  3945 net.cpp:380] pool2 -> pool2
I0429 12:38:00.481040  3945 net.cpp:122] Setting up pool2
I0429 12:38:00.481060  3945 net.cpp:129] Top shape: 50 50 6 6 (90000)
I0429 12:38:00.481066  3945 net.cpp:137] Memory required for data: 17163000
I0429 12:38:00.481072  3945 layer_factory.hpp:77] Creating layer fc1
I0429 12:38:00.481083  3945 net.cpp:84] Creating Layer fc1
I0429 12:38:00.481088  3945 net.cpp:406] fc1 <- pool2
I0429 12:38:00.481096  3945 net.cpp:380] fc1 -> fc1
I0429 12:38:00.487432  3945 net.cpp:122] Setting up fc1
I0429 12:38:00.487452  3945 net.cpp:129] Top shape: 50 500 (25000)
I0429 12:38:00.487457  3945 net.cpp:137] Memory required for data: 17263000
I0429 12:38:00.487466  3945 layer_factory.hpp:77] Creating layer relu3
I0429 12:38:00.487484  3945 net.cpp:84] Creating Layer relu3
I0429 12:38:00.487499  3945 net.cpp:406] relu3 <- fc1
I0429 12:38:00.487512  3945 net.cpp:380] relu3 -> relu3
I0429 12:38:00.487839  3945 net.cpp:122] Setting up relu3
I0429 12:38:00.487859  3945 net.cpp:129] Top shape: 50 500 (25000)
I0429 12:38:00.487864  3945 net.cpp:137] Memory required for data: 17363000
I0429 12:38:00.487870  3945 layer_factory.hpp:77] Creating layer fc2
I0429 12:38:00.487884  3945 net.cpp:84] Creating Layer fc2
I0429 12:38:00.487900  3945 net.cpp:406] fc2 <- relu3
I0429 12:38:00.487910  3945 net.cpp:380] fc2 -> fc2
I0429 12:38:00.488093  3945 net.cpp:122] Setting up fc2
I0429 12:38:00.488109  3945 net.cpp:129] Top shape: 50 10 (500)
I0429 12:38:00.488114  3945 net.cpp:137] Memory required for data: 17365000
I0429 12:38:00.488131  3945 layer_factory.hpp:77] Creating layer fc2_fc2_0_split
I0429 12:38:00.488148  3945 net.cpp:84] Creating Layer fc2_fc2_0_split
I0429 12:38:00.488157  3945 net.cpp:406] fc2_fc2_0_split <- fc2
I0429 12:38:00.488168  3945 net.cpp:380] fc2_fc2_0_split -> fc2_fc2_0_split_0
I0429 12:38:00.488195  3945 net.cpp:380] fc2_fc2_0_split -> fc2_fc2_0_split_1
I0429 12:38:00.488256  3945 net.cpp:122] Setting up fc2_fc2_0_split
I0429 12:38:00.488273  3945 net.cpp:129] Top shape: 50 10 (500)
I0429 12:38:00.488278  3945 net.cpp:129] Top shape: 50 10 (500)
I0429 12:38:00.488282  3945 net.cpp:137] Memory required for data: 17369000
I0429 12:38:00.488297  3945 layer_factory.hpp:77] Creating layer loss
I0429 12:38:00.488309  3945 net.cpp:84] Creating Layer loss
I0429 12:38:00.488322  3945 net.cpp:406] loss <- fc2_fc2_0_split_0
I0429 12:38:00.488330  3945 net.cpp:406] loss <- label_data_1_split_0
I0429 12:38:00.488339  3945 net.cpp:380] loss -> loss
…
I0429 12:39:37.242480  3974 upgrade_proto.cpp:77] Attempting to upgrade batch norm layers using deprecated params: /home/ubuntu/ML/mnist/caffe/models/LeNet/m6/deploy_6_LeNet.prototxt
I0429 12:39:37.242497  3974 upgrade_proto.cpp:80] Successfully upgraded batch norm layers using deprecated params.
I0429 12:39:37.242677  3974 net.cpp:51] Initializing net from parameters: 
state {
  phase: TEST
  level: 0
}
layer {
  name: "data"
  type: "Input"
  top: "data"
  input_param {
    shape {
      dim: 1
      dim: 3
      dim: 28
      dim: 28
    }
  }
}
layer {
  name: "conv1"
  type: "Convolution"
  bottom: "data"
  top: "conv1"
  param {
    lr_mult: 1
    decay_mult: 1
  }
  param {
    lr_mult: 2
    decay_mult: 0
  }
  convolution_param {
    num_output: 20
    pad: 1
    kernel_size: 5
    stride: 1
    weight_filler {
      type: "xavier"
    }
    bias_filler {
      type: "constant"
      value: 0
    }
  }
}
layer {
  name: "bn1"
  type: "BatchNorm"
  bottom: "conv1"
  top: "bn1"
  param {
    lr_mult: 0
    decay_mult: 0
  }
  param {
    lr_mult: 0
    decay_mult: 0
  }
  param {
    lr_mult: 0
    decay_mult: 0
  }
  batch_norm_param {
    use_global_stats: true
  }
}
layer {
  name: "scale1"
  type: "Scale"
  bottom: "bn1"
  top: "scale1"
  scale_param {
    bias_term: true
  }
}
layer {
  name: "relu1"
  type: "ReLU"
  bottom: "scale1"
  top: "relu1"
}
layer {
  name: "pool1"
  type: "Pooling"
  bottom: "relu1"
  top: "pool1"
  pooling_param {
    pool: MAX
    kernel_size: 2
    stride: 2
  }
}
layer {
  name: "conv2"
  type: "Convolution"
  bottom: "pool1"
  top: "conv2"
  param {
    lr_mult: 1
    decay_mult: 1
  }
  param {
    lr_mult: 2
    decay_mult: 0
  }
  convolution_param {
    num_output: 50
    pad: 1
    kernel_size: 5
    stride: 1
    weight_filler {
      type: "xavier"
    }
    bias_filler {
      type: "constant"
      value: 0
    }
  }
}
layer {
  name: "bn2"
  type: "BatchNorm"
  bottom: "conv2"
  top: "bn2"
  param {
    lr_mult: 0
    decay_mult: 0
  }
  param {
    lr_mult: 0
    decay_mult: 0
  }
  param {
    lr_mult: 0
    decay_mult: 0
  }
  batch_norm_param {
    use_global_stats: true
  }
}
layer {
  name: "scale2"
  type: "Scale"
  bottom: "bn2"
  top: "scale2"
  scale_param {
    bias_term: true
  }
}
layer {
  name: "relu2"
  type: "ReLU"
  bottom: "scale2"
  top: "relu2"
}
layer {
  name: "pool2"
  type: "Pooling"
  bottom: "relu2"
  top: "pool2"
  pooling_param {
    pool: MAX
    kernel_size: 2
    stride: 2
  }
}
layer {
  name: "fc1"
  type: "InnerProduct"
  bottom: "pool2"
  top: "fc1"
  param {
    lr_mult: 1
    decay_mult: 1
  }
  param {
    lr_mult: 2
    decay_mult: 0
  }
  inner_product_param {
    num_output: 500
    weight_filler {
      type: "xavier"
    }
    bias_filler {
      type: "constant"
      value: 1
    }
  }
}
layer {
  name: "relu3"
  type: "ReLU"
  bottom: "fc1"
  top: "relu3"
}
layer {
  name: "fc2"
  type: "InnerProduct"
  bottom: "relu3"
  top: "fc2"
  param {
    lr_mult: 1
    decay_mult: 1
  }
  param {
    lr_mult: 2
    decay_mult: 0
  }
  inner_product_param {
    num_output: 10
    weight_filler {
      type: "xavier"
    }
    bias_filler {
      type: "constant"
      value: 1
    }
  }
}
layer {
  name: "prob"
  type: "Softmax"
  bottom: "fc2"
  top: "prob"
}
I0429 12:39:37.242751  3974 layer_factory.hpp:77] Creating layer data
I0429 12:39:37.242775  3974 net.cpp:84] Creating Layer data
I0429 12:39:37.242784  3974 net.cpp:380] data -> data
I0429 12:39:37.254700  3974 net.cpp:122] Setting up data
I0429 12:39:37.254740  3974 net.cpp:129] Top shape: 1 3 28 28 (2352)
I0429 12:39:37.254748  3974 net.cpp:137] Memory required for data: 9408
I0429 12:39:37.254757  3974 layer_factory.hpp:77] Creating layer conv1
I0429 12:39:37.254782  3974 net.cpp:84] Creating Layer conv1
I0429 12:39:37.254791  3974 net.cpp:406] conv1 <- data
I0429 12:39:37.254803  3974 net.cpp:380] conv1 -> conv1
I0429 12:39:37.709764  3974 net.cpp:122] Setting up conv1
I0429 12:39:37.709816  3974 net.cpp:129] Top shape: 1 20 26 26 (13520)
I0429 12:39:37.709825  3974 net.cpp:137] Memory required for data: 63488
I0429 12:39:37.709848  3974 layer_factory.hpp:77] Creating layer bn1
I0429 12:39:37.709877  3974 net.cpp:84] Creating Layer bn1
I0429 12:39:37.709893  3974 net.cpp:406] bn1 <- conv1
I0429 12:39:37.709905  3974 net.cpp:380] bn1 -> bn1
I0429 12:39:37.710178  3974 net.cpp:122] Setting up bn1
I0429 12:39:37.710199  3974 net.cpp:129] Top shape: 1 20 26 26 (13520)
I0429 12:39:37.710207  3974 net.cpp:137] Memory required for data: 117568
I0429 12:39:37.710225  3974 layer_factory.hpp:77] Creating layer scale1
I0429 12:39:37.710248  3974 net.cpp:84] Creating Layer scale1
I0429 12:39:37.710263  3974 net.cpp:406] scale1 <- bn1
I0429 12:39:37.710273  3974 net.cpp:380] scale1 -> scale1
I0429 12:39:37.710345  3974 layer_factory.hpp:77] Creating layer scale1
I0429 12:39:37.710505  3974 net.cpp:122] Setting up scale1
I0429 12:39:37.710522  3974 net.cpp:129] Top shape: 1 20 26 26 (13520)
I0429 12:39:37.710530  3974 net.cpp:137] Memory required for data: 171648
I0429 12:39:37.710539  3974 layer_factory.hpp:77] Creating layer relu1
I0429 12:39:37.710551  3974 net.cpp:84] Creating Layer relu1
I0429 12:39:37.710566  3974 net.cpp:406] relu1 <- scale1
I0429 12:39:37.710578  3974 net.cpp:380] relu1 -> relu1
I0429 12:39:37.710777  3974 net.cpp:122] Setting up relu1
I0429 12:39:37.710798  3974 net.cpp:129] Top shape: 1 20 26 26 (13520)
I0429 12:39:37.710804  3974 net.cpp:137] Memory required for data: 225728
I0429 12:39:37.710811  3974 layer_factory.hpp:77] Creating layer pool1
I0429 12:39:37.710821  3974 net.cpp:84] Creating Layer pool1
I0429 12:39:37.710827  3974 net.cpp:406] pool1 <- relu1
I0429 12:39:37.710842  3974 net.cpp:380] pool1 -> pool1
I0429 12:39:37.710901  3974 net.cpp:122] Setting up pool1
I0429 12:39:37.710922  3974 net.cpp:129] Top shape: 1 20 13 13 (3380)
I0429 12:39:37.710929  3974 net.cpp:137] Memory required for data: 239248
I0429 12:39:37.710934  3974 layer_factory.hpp:77] Creating layer conv2
I0429 12:39:37.710952  3974 net.cpp:84] Creating Layer conv2
I0429 12:39:37.710960  3974 net.cpp:406] conv2 <- pool1
I0429 12:39:37.710970  3974 net.cpp:380] conv2 -> conv2
I0429 12:39:37.712829  3974 net.cpp:122] Setting up conv2
I0429 12:39:37.712857  3974 net.cpp:129] Top shape: 1 50 11 11 (6050)
I0429 12:39:37.712865  3974 net.cpp:137] Memory required for data: 263448
I0429 12:39:37.712880  3974 layer_factory.hpp:77] Creating layer bn2
I0429 12:39:37.712895  3974 net.cpp:84] Creating Layer bn2
I0429 12:39:37.712911  3974 net.cpp:406] bn2 <- conv2
I0429 12:39:37.712925  3974 net.cpp:380] bn2 -> bn2
I0429 12:39:37.713166  3974 net.cpp:122] Setting up bn2
I0429 12:39:37.713186  3974 net.cpp:129] Top shape: 1 50 11 11 (6050)
I0429 12:39:37.713192  3974 net.cpp:137] Memory required for data: 287648
I0429 12:39:37.713205  3974 layer_factory.hpp:77] Creating layer scale2
I0429 12:39:37.713217  3974 net.cpp:84] Creating Layer scale2
I0429 12:39:37.713223  3974 net.cpp:406] scale2 <- bn2
I0429 12:39:37.713237  3974 net.cpp:380] scale2 -> scale2
I0429 12:39:37.713310  3974 layer_factory.hpp:77] Creating layer scale2
I0429 12:39:37.713455  3974 net.cpp:122] Setting up scale2
I0429 12:39:37.713474  3974 net.cpp:129] Top shape: 1 50 11 11 (6050)
I0429 12:39:37.713480  3974 net.cpp:137] Memory required for data: 311848
I0429 12:39:37.713490  3974 layer_factory.hpp:77] Creating layer relu2
I0429 12:39:37.713500  3974 net.cpp:84] Creating Layer relu2
I0429 12:39:37.713506  3974 net.cpp:406] relu2 <- scale2
I0429 12:39:37.713518  3974 net.cpp:380] relu2 -> relu2
I0429 12:39:37.713829  3974 net.cpp:122] Setting up relu2
I0429 12:39:37.713853  3974 net.cpp:129] Top shape: 1 50 11 11 (6050)
I0429 12:39:37.713861  3974 net.cpp:137] Memory required for data: 336048
I0429 12:39:37.713867  3974 layer_factory.hpp:77] Creating layer pool2
I0429 12:39:37.713881  3974 net.cpp:84] Creating Layer pool2
I0429 12:39:37.713887  3974 net.cpp:406] pool2 <- relu2
I0429 12:39:37.713896  3974 net.cpp:380] pool2 -> pool2
I0429 12:39:37.713954  3974 net.cpp:122] Setting up pool2
I0429 12:39:37.713970  3974 net.cpp:129] Top shape: 1 50 6 6 (1800)
I0429 12:39:37.713977  3974 net.cpp:137] Memory required for data: 343248
I0429 12:39:37.713982  3974 layer_factory.hpp:77] Creating layer fc1
I0429 12:39:37.713994  3974 net.cpp:84] Creating Layer fc1
I0429 12:39:37.714001  3974 net.cpp:406] fc1 <- pool2
I0429 12:39:37.714015  3974 net.cpp:380] fc1 -> fc1
I0429 12:39:37.720429  3974 net.cpp:122] Setting up fc1
I0429 12:39:37.720454  3974 net.cpp:129] Top shape: 1 500 (500)
I0429 12:39:37.720461  3974 net.cpp:137] Memory required for data: 345248
I0429 12:39:37.720472  3974 layer_factory.hpp:77] Creating layer relu3
I0429 12:39:37.720482  3974 net.cpp:84] Creating Layer relu3
I0429 12:39:37.720491  3974 net.cpp:406] relu3 <- fc1
I0429 12:39:37.720500  3974 net.cpp:380] relu3 -> relu3
I0429 12:39:37.720676  3974 net.cpp:122] Setting up relu3
I0429 12:39:37.720696  3974 net.cpp:129] Top shape: 1 500 (500)
I0429 12:39:37.720705  3974 net.cpp:137] Memory required for data: 347248
I0429 12:39:37.720710  3974 layer_factory.hpp:77] Creating layer fc2
I0429 12:39:37.720721  3974 net.cpp:84] Creating Layer fc2
I0429 12:39:37.720727  3974 net.cpp:406] fc2 <- relu3
I0429 12:39:37.720741  3974 net.cpp:380] fc2 -> fc2
I0429 12:39:37.721484  3974 net.cpp:122] Setting up fc2
I0429 12:39:37.721508  3974 net.cpp:129] Top shape: 1 10 (10)
I0429 12:39:37.721516  3974 net.cpp:137] Memory required for data: 347288
I0429 12:39:37.721534  3974 layer_factory.hpp:77] Creating layer prob
I0429 12:39:37.721546  3974 net.cpp:84] Creating Layer prob
I0429 12:39:37.721562  3974 net.cpp:406] prob <- fc2
I0429 12:39:37.721572  3974 net.cpp:380] prob -> prob
I0429 12:39:37.721917  3974 net.cpp:122] Setting up prob
I0429 12:39:37.721940  3974 net.cpp:129] Top shape: 1 10 (10)
I0429 12:39:37.721948  3974 net.cpp:137] Memory required for data: 347328
I0429 12:39:37.721954  3974 net.cpp:200] prob does not need backward computation.
I0429 12:39:37.721961  3974 net.cpp:200] fc2 does not need backward computation.
I0429 12:39:37.721966  3974 net.cpp:200] relu3 does not need backward computation.
I0429 12:39:37.721971  3974 net.cpp:200] fc1 does not need backward computation.
…
